without_features/high_risk_brain_age_model.pth (torch, 792330 bytes, 113 tensors)

initial.0.weight f4 [8, 1, 3, 3, 3]
000000 32 f9 e7 bb 2f 90 a9 3d e4 36 b2 bd 7f 20 03 be
       -0.007079267 0.08279454 -0.08701876 -0.12805365
000010 9c 60 ca 3c 8e 2e 05 bd d4 df 7d bd 1b 48 c6 bd
       0.02470427 -0.0325151 -0.061981037 -0.09681722
000020 a0 ce 3e be cd fb 0b 3e 74 eb bf bd a5 ea d5 bd
       -0.18633509 0.13670273 -0.09371081 -0.104451455
000030 bb 60 18 3e 81 9c 69 bd 19 96 6d bd 32 de 32 be
       0.1488065 -0.05703402 -0.058004472 -0.17467573
000040 09 d8 bf bc 81 be 1b be 5c 18 b0 3d b4 33 0e 3e
       -0.023418443 -0.1520939 0.08598396 0.1388691
000050 f3 df 33 3d a5 28 c1 bd 41 24 0c 3e 66 68 dc 3d
       0.043914746 -0.094315805 0.13685705 0.107621
000060 08 70 84 3d e6 b9 ca bd 0a 62 fa bd 79 94 a0 bd
       0.06466681 -0.098987386 -0.12225731 -0.07840819
000070 34 cd 9a bd db 6f 31 bd e5 e2 f2 3c 3d 21 4a bd
       -0.07558671 -0.043319564 0.029649207 -0.049348105
000080 7b cc cc bd d8 9e 83 3d cb 87 8f bc a5 bb 23 3e
       -0.09999939 0.064267814 -0.017520806 0.1598955
000090 ca 8d d0 3d 35 01 b3 3d 30 61 90 bc 6b 60 01 3c
       0.10183294 0.087404646 -0.017624468 0.007896523
0000a0 ae 11 c6 bd 6d 9f a4 bd 94 36 02 3e c3 a3 30 3e
       -0.09671341 -0.080382206 0.12716132 0.1724997
0000b0 79 96 fc bd 7d b2 61 bb c6 58 74 3d 34 fa ad 3d
       -0.12333388 -0.0034438663 0.059654973 0.08494988
0000c0 ad 45 cd 3d b1 bd c6 3d c3 f6 54 3c 24 d9 7f bc
       0.10023055 0.097041495 0.012998286 -0.015615735
0000d0 ee 77 36 3e 0d d3 4c bd e4 60 6a 3d 31 92 1a be
       0.17819187 -0.05000596 0.05722131 -0.1509483
0000e0 79 e9 e8 3d 47 a0 06 3e 0d 6a 2d be 84 f1 d6 3d
       0.113726564 0.13147078 -0.16934986 0.10495284
0000f0 4f 41 bb bd ed bd 8b bd c0 00 20 3e 26 c5 1b be
       -0.09143316 -0.06823335 0.15625286 -0.15211925
000100 de 16 d0 3d 7d 26 82 3d dd 27 32 3e 67 3d eb bd
       0.101606116 0.06354997 0.17398019 -0.11486321
000110 18 99 23 bd 11 f4 6d bd 58 b6 0e be 20 0c 29 3e
       -0.039940923 -0.058094088 -0.13936746 0.16508532
000120 5f 7a 83 3c 58 43 9e 3d 48 4d 1b 3e 24 a9 46 3e
       0.016049562 0.077276886 0.15166199 0.1940046
000130 5e 9a 6e 3d cd 2d 53 3d 89 59 0f bd 60 ee f5 3b
       0.058252685 0.05155735 -0.034997497 0.007505223
000140 4d 9b 15 be 2a 1a 2c 3e 68 90 0b be a9 5a 80 bd
       -0.14610024 0.16806856 -0.13629305 -0.06267292
000150 c3 08 dc bc 9a 46 b6 3d 9b b2 0c 3e c8 e8 07 3d
       -0.026859647 0.08900185 0.13740008 0.033180982
000160 5f 70 21 3e 2b e5 11 be 3e 2e bb bd 5c 7f 01 bd
       0.15765522 -0.14247577 -0.09139679 -0.0316156
000170 99 e9 19 be 14 67 ed 3d 7d 50 20 bd 35 80 56 3d
       -0.15030517 0.11591926 -0.03913926 0.05236836
000180 11 b0 62 ba e3 7e 2b 3e 0d 86 a9 3d 21 b4 34 3e
       -0.0008647452 0.16747622 0.08277521 0.17646839
000190 19 c8 25 3e 92 3f df 3c 66 ec 2a 3e cc 7a d3 bc
       0.16189612 0.027251992 0.16691741 -0.02581539
0001a0 1e 28 bf 3d 21 ac a0 bd 5e 14 8e bd ab 67 89 bd
       0.093338236 -0.07845331 -0.069374785 -0.06709226
0001b0 fe b7 1a 3e 89 50 16 3d 27 68 36 3e 6a f4 77 3b
       0.1510925 0.036697898 0.17813168 0.003783489
0001c0 fe d1 2a 3d 8b 9f c9 bb cf 07 20 3d 28 5b be bc
       0.04170417 -0.006153052 0.039069947 -0.023236826
0001d0 17 f3 70 3d d9 bd 39 3e 0a 6b 2b be 48 49 00 be
       0.05882558 0.18138827 -0.16740051 -0.12527955
0001e0 1e 76 e0 bd 27 f3 9b 3d 9a 50 0f 3b ab 6a ac 3d
       -0.10960029 0.07614737 0.002186811 0.08418783
0001f0 46 97 30 be 63 16 97 3c ff f5 af 3c df d5 a7 3d
       -0.17245206 0.018443292 0.021479605 0.081950895
000200 11 0b 46 bd 71 82 5d 3c e5 94 ef 3c ea 66 e7 3d
       -0.048350397 0.013519869 0.029245803 0.11298926
000210 2d 90 80 3d 4d b4 88 3d ce 11 29 be 66 c7 93 bd
       0.06277499 0.06675015 -0.16510698 -0.072157666
000220 08 36 c8 bd f3 c0 16 be b8 99 bf 3b f9 e3 cd 3d
       -0.09775931 -0.14722042 0.005847182 0.10053248
000230 74 dd 8e bd 04 c2 cb 3d 9f 7c 91 bc 30 44 41 bd
       -0.069758326 0.09949115 -0.01775962 -0.04718417
000240 b8 d4 94 bd 71 25 cd 3d 2f f1 88 3d df 8e d0 3d
       -0.072671354 0.10016907 0.06686627 0.101835005
000250 4c 0b 82 3d 8f d2 08 3e 1a 8c e7 3d 26 04 5a 3d
       0.06349811 0.13361572 0.11306019 0.053226613
000260 ac 41 86 bd 61 9f fc 3d 37 6e 03 be d7 16 a0 3c
       -0.06555495 0.123350866 -0.12835012 0.01954214
000270 50 18 74 3c 07 16 f6 bd 5a 07 56 3b 4e 69 53 3d
       0.014898375 -0.1201592 0.003265819 0.0516141
000280 64 a4 10 3e 83 2b 92 bd f9 91 0a be 32 52 25 3e
       0.1412521 -0.071372055 -0.13532247 0.16144636
000290 b1 35 32 be be c2 ea bd 6b f7 07 3e b3 a5 16 3e
       -0.17403294 -0.114629254 0.13277976 0.14711647
0002a0 08 8a 4e be 9f b8 28 be df de 54 3d 72 47 d3 bd
       -0.20169842 -0.16476677 0.05197036 -0.103163615
0002b0 4b 53 f1 bd e7 04 c4 bd cd 2e ca 3c b6 4a 46 bd
       -0.11783465 -0.095712475 0.02468052 -0.048411094
0002c0 4d 83 3e be 12 7a 2c 3d ef b9 3c be 67 58 4e be
       -0.18604775 0.042108603 -0.18430303 -0.2015091
0002d0 93 03 1a be 58 51 23 3d 8e e7 fc 3c 83 2c 0b be
       -0.15040426 0.039872497 0.030872133 -0.13591199
0002e0 45 7e 3f 3d 58 7f 05 bd 56 b2 95 3c c7 39 46 be
       0.04675128 -0.032592148 0.018273514 -0.19357978
0002f0 54 79 cb bd 25 8f 41 be 12 81 2b be 7b 7e 9b 3d
       -0.09935251 -0.18902262 -0.16748455 0.075924836
000300 fa 7a 36 be c9 fd e0 38 90 67 4b 3c ed b4 ad bc
       -0.1782035 0.000107284235 0.012414828 -0.021204436
000310 8e b7 1b 3e df 90 ce bb f8 dd 45 be 13 09 1a 3e
       0.1520674 -0.006303891 -0.19322956 0.15042524
000320 34 9c a9 3d ac 75 0d 3d d7 d1 37 bd b3 fc 81 3d
       0.082817465 0.03453605 -0.044877853 0.06347027
000330 00 44 05 be f7 44 35 bd 1f 8c bf bd a4 06 45 be
       -0.13014221 -0.044255223 -0.09352898 -0.19240814
000340 1a 01 79 3d 6a 3d 9f 3d fe 9b 1d be f9 b5 11 3e
       0.060792066 0.07775386 -0.15391538 0.14229573
000350 aa 97 16 bd bb 76 c0 3d 6b dd 6d 3d d0 8c a8 3d
       -0.036765732 0.09397646 0.05807249 0.08229983

initial.0.bias f4 [8]
000000 8a ec 1a 3e a7 83 c9 3d 8c 53 26 be 27 4d ac 3d
       0.15129295 0.09839564 -0.16242808 0.08413153
000010 96 5a 1a be c5 36 0b be f2 8b c9 3d b8 a3 2a bd
       -0.15073618 -0.13595112 0.098411456 -0.04166004

initial.1.weight f4 [8]
000000 fc ef 62 3f c2 79 80 3f 22 d8 6f 3f 2b 2f 73 3f
       0.8864744 1.0037158 0.9368917 0.9499385
000010 c6 e2 65 3f 32 cd 77 3f 34 48 6f 3f 65 4c 79 3f
       0.89799154 0.9679748 0.9346955 0.97382194

initial.1.bias f4 [8]
000000 02 1b 37 bd 9c 15 11 bd b7 01 27 bc 4a 2c 58 bd
       -0.04470349 -0.035421 -0.01019328 -0.052776612
000010 92 0e e1 bd c1 a6 63 39 ff 08 29 bc 69 98 71 3c
       -0.10989107 0.00021710528 -0.010317086 0.01474581

initial.1.running_mean f4 [8]
000000 f8 59 43 3e 4e 02 83 3d ba 78 43 be f2 1b 2a 3d
       0.19077289 0.06396924 -0.19089022 0.041530557
000010 76 6d 32 be 88 c7 1d be 80 1b 4b 3e 41 5d d2 bc
       -0.17424569 -0.15408146 0.19834709 -0.025679233

initial.1.running_var f4 [8]
000000 c3 6b 88 3d f7 00 52 3d 6c 0f 22 3d 9d 3b b4 3d
       0.06661179 0.05127045 0.03956549 0.08800433
000010 bb 26 0b 3d fd da aa 3c 8b c9 d3 3e 7d bb 1a 3d
       0.033972483 0.020856375 0.41364703 0.03777646

res1.conv1.weight f4 [16, 8, 3, 3, 3]
000000 13 23 03 3d 7a 63 63 3d d2 40 50 bd 95 e2 dd 3c
       0.03201587 0.05551479 -0.050843067 0.027085582
000010 de 13 11 bb 04 90 3a bd 22 b8 01 3d 94 6b 84 bd
       -0.0022137086 -0.0455475 0.031669743 -0.064658314
000020 c8 52 4e bd eb a9 13 3c 38 dc 36 bd e1 fc be bc
       -0.050371915 0.00901268 -0.04464361 -0.023313941
000030 05 d0 76 bd 00 df 23 3d 5c 0b ec 3b 91 38 01 3d
       -0.060256977 0.04000759 0.0072035026 0.031548087
000040 90 e7 91 3b 06 2e 92 bc a1 fd f2 3c 5e a1 0f 3d
       0.004452653 -0.017844211 0.029661955 0.035066
000050 65 00 41 bd cf 18 36 3d 6e ca ab 3b a8 e5 86 bd
       -0.047119517 0.044457253 0.0052426374 -0.06586772
000060 7c 3d 31 bd c7 d4 5f 3d e1 30 0c bd 04 a3 4a 3d
       -0.043271527 0.05464628 -0.034226302 0.04947187
000070 3e 63 09 bd 29 49 51 3d a0 c3 55 3d 6a 11 74 3c
       -0.03354191 0.05109516 0.052188516 0.01489673
000080 f5 34 8a bc cd 64 53 bd b2 f4 3e 3d 20 a1 9b 3c
       -0.016870955 -0.051609803 0.04662008 0.018997729
000090 8e ab 19 bc b1 e4 07 bd 07 8e 06 bd d5 b4 37 3c
       -0.009379281 -0.03317708 -0.03285029 0.011212547
0000a0 41 c7 7f 3d 56 83 a2 3b b5 86 59 3c e1 09 87 3d
       0.062445883 0.004959504 0.013276746 0.06593681
0000b0 fa d4 9a 3c 92 73 53 3d 3b 26 06 bd 45 14 6a 3d
       0.018900383 0.05162389 -0.032751303 0.057148237
0000c0 74 1c b5 bc 6c 2b 41 3d ea f9 9b 3d 82 df 9d bc
       -0.022108294 0.04716055 0.07616027 -0.019271616
0000d0 4c 4b 8d 3c 53 53 1f 3a fa 54 73 3c b0 48 9b bc
       0.017247818 0.0006077785 0.014851803 -0.018955559
0000e0 fb 8c 99 bc 27 02 37 3a d6 cb 5c bd 6e 51 56 bd
       -0.018743983 0.0006981217 -0.05390533 -0.05232375
0000f0 41 be 60 3c d5 ad ad 3c df c5 b0 bb 7a fc 61 3d
       0.013717235 0.021201054 -0.005394682 0.05517242
000100 33 cc 5a 3d f9 27 48 bd d9 93 92 3c ae b4 07 3d
       0.053417396 -0.048866246 0.017892765 0.033131294
000110 0a a3 9c bb 09 48 42 3d b4 2a 9a bc fc a0 44 3d
       -0.004780178 0.04743198 -0.01881919 0.04800509
000120 5c a6 72 bd 8b 62 5a bd 74 63 86 bc 39 29 fd 3c
       -0.059240684 -0.053316634 -0.016404845 0.030903446
000130 aa f9 ec bb 20 fc 0b 3d 49 88 37 bc cf 32 56 3d
       -0.0072319107 0.034175992 -0.0112019265 0.05229455
000140 d1 66 01 bd e0 4a 09 bd 26 60 37 3d 74 d7 75 3d
       -0.031592194 -0.033518672 0.04476943 0.060019925
000150 93 14 d1 bc 0d 84 47 3d 7e 26 19 3c 73 2e 30 3d
       -0.025522506 0.048709918 0.009347556 0.043013047
000160 2b 4f 51 3d 40 56 2e bd 55 71 dc 3c 45 a0 6c 3d
       0.05110089 -0.042562723 0.02690951 0.057770032
000170 87 d3 28 3b e6 7f 2c bd 4a 82 db 3c 38 1a da bc
       0.0025760846 -0.04211416 0.026795525 -0.02662383
000180 0f 2e 87 3d 69 2e 7e 3d 1a 26 37 39 07 a7 da 3c
       0.06600582 0.06205598 0.00017466434 0.026690973
000190 43 52 51 3d eb e4 07 3d 12 1f b5 bc e4 ac 64 3b
       0.05110384 0.033177298 -0.022109542 0.003489309
0001a0 06 34 f6 3c b5 a2 ed bc e3 f2 9d 3c 85 27 91 bc
       0.030054104 -0.029008249 0.019280856 -0.01771904
0001b0 f2 90 43 bd 1b 95 1f bd 82 29 64 3d 6e 91 67 3d
       -0.047745652 -0.038960557 0.055703647 0.056535177
0001c0 5f 62 00 3c 76 2d bf ba f8 28 69 3d fa d3 0d 3c
       0.0078359535 -0.0014585692 0.056923836 0.008656496
0001d0 b5 8b 66 bb 35 92 a3 bc fe 56 d4 bc c1 5f ba bc
       -0.0035178487 -0.019967178 -0.025920387 -0.022750737
0001e0 9b c4 4a bd 0a 74 66 bc a8 41 f0 3c 77 b5 d7 3c
       -0.049503904 -0.014065752 0.029328182 0.026331646
0001f0 46 63 f8 3c 5e 77 a0 3c 79 15 cc 3c d6 9f 10 3d
       0.030320775 0.019588169 0.024912583 0.03530868
000200 f1 b1 51 bc 6b e7 b8 bc 67 f9 36 bd 32 6e 95 3d
       -0.012798772 -0.022571286 -0.044671442 0.07296409
000210 bf 72 18 bd fb ab 3e bd e4 f1 4f 3b d4 ce 28 3d
       -0.037218805 -0.046550732 0.0031729871 0.04121287
000220 fe 66 ef ba e9 b0 89 3c 7a e7 20 3d 89 c9 4b 3d
       -0.0018264947 0.01680799 0.039283253 0.049752746
000230 6f d8 4e 3d af ea 95 3d 19 ae 8a 3d 4d 1a fc bc
       0.050499376 0.07320153 0.06771488 -0.03077426
000240 f5 d2 5f 3c 2e 92 a2 bb dc 55 eb 3c 7a ae 88 bb
       0.013661136 -0.0049612736 0.028727464 -0.00417119
000250 f1 a6 f3 bc 72 cb 36 bd 68 40 14 bd 8a 1a 40 3d
       -0.02974269 -0.044627614 -0.036194235 0.04690031
000260 fa 5f 1d 3d f5 3f 81 3d 0f 92 ee bc 11 b1 2c bd
       0.03842161 0.06311027 -0.02912238 -0.04216105
000270 ed 4f 18 3c 2a 29 85 3d db e4 7c 3d b5 97 47 3d
       0.0092964 0.06501992 0.06174169 0.048728663
000280 e9 e9 26 bd 5f 9b 87 bb e3 29 4a 3d be f5 24 bd
       -0.040750418 -0.0041383947 0.049356353 -0.04027342
000290 dc b7 c6 3b c6 e1 06 3d 72 30 44 bd 60 5a 4b bd
       0.006064398 0.032930158 -0.047897764 -0.049646735
0002a0 1c 1b ac 3c a4 22 ea bc b8 7b 95 bc a2 17 e8 3c
       0.02100902 -0.028580971 -0.01824747 0.028331582
0002b0 fb e0 e2 bc ca bb 98 3c 82 b9 38 bd b6 80 9e bc
       -0.02769517 0.018644232 -0.04509879 -0.019348484
0002c0 61 13 b6 bc 35 ce d9 3c 44 77 5a 3d 6b b5 02 3c
       -0.022226037 0.026587585 0.053336397 0.007977824
0002d0 e8 ce 00 3d d3 c5 2a bd 5b f2 f4 3c b5 6d 0b 3d
       0.03144732 -0.041692566 0.02990072 0.03404017
0002e0 27 f5 30 3d 42 5e 20 bd d3 f9 58 bd 6e 7f e6 3c
       0.043202545 -0.03915239 -0.052972626 0.028136935
0002f0 26 13 53 3d 19 68 8e 3b 3f 39 2e 3c 7b c1 b2 bc
       0.051531933 0.0043459055 0.010633766 -0.021820774
000300 4e 64 e1 bc 5c 41 4c 3d 95 9a 65 3d b1 45 bc 3c
       -0.02751365 0.04986702 0.056055624 0.02298245
000310 fe e7 34 3b 23 ec 47 bc 9e c3 4b 3d 29 61 ce 39
       0.0027604098 -0.0122022955 0.049747102 0.00039363772
000320 39 fe 30 bc aa f3 a1 3c a3 9f 57 bd 54 e1 74 3c
       -0.010802799 0.019769508 -0.052642476 0.014946301
000330 aa 97 49 3d 1f f0 32 bd f2 d5 75 3d fc 41 95 3d
       0.049216904 -0.04368603 0.060018487 0.07287976
000340 f1 a2 4b 3c 85 79 38 3d 70 98 6f 3a c1 3b 85 3c
       0.012428985 0.045037765 0.00091398414 0.016263844
000350 2a f4 96 3b 54 ce 8c 3d 7b 43 8e 3c 6a aa 8c 3c
       0.0046067433 0.068752915 0.017366162 0.017171104
000360 9b de 35 bd 0b 2d cf 3c e4 47 45 bc 29 a7 a7 bd
       -0.044401746 0.025290033 -0.012041066 -0.0818618
000370 07 81 8e bd 59 13 8c bd d3 15 35 3d 45 d9 66 bd
       -0.06958204 -0.06839628 0.044210266 -0.056359548
000380 c4 aa 11 3d 63 f7 fd 3c 88 68 a8 bc 16 28 21 3d
       0.035563245 0.031001752 -0.020557657 0.03934487
000390 60 e5 f7 bc b8 26 2e bc 9c 02 36 bd 66 1b 19 3b
       -0.030260742 -0.010629348 -0.044436082 0.0023362278
0003a0 62 6f 31 3d 5b 0e 83 bd 29 f5 6c bc 9d de 7c bd
       0.043319114 -0.063992225 -0.014462748 -0.061735738
0003b0 e8 7a d0 bc 0b 0b 5d bd f6 fa 34 3d 14 58 af 3c
       -0.025449231 -0.05396561 0.044184648 0.021404304
0003c0 64 28 4f bd a8 88 ba 3b 28 49 37 3c da 5c 0c ba
       -0.05057563 0.00569256 0.011186875 -0.0005354412
0003d0 a2 4d 94 bc ec 24 f3 bc c2 44 ce bb 20 0a 80 3d
       -0.018103424 -0.029680692 -0.0062948177 0.06251931
0003e0 da db 52 bd 45 fd 86 bc 09 1a 22 3c 28 42 9d 3d
       -0.051479198 -0.01647819 0.009893903 0.07678634
0003f0 10 3b 91 3d 7c 81 55 3d f5 52 8c 3d d0 6b 86 3d
       0.070913434 0.05212544 0.0685176 0.06563532

res1.conv1.bias f4 [16]
000000 00 3b d5 bc 09 97 a1 bc 4c 8d bf 3c bc ef a6 bb
       -0.02602911 -0.01972534 0.023382805 -0.0050944965
000010 9a eb 00 bd 8f 27 39 3d 8a db 04 3d 8c 5d 0a bd
       -0.031474687 0.04520374 0.03243593 -0.03378062
000020 cd 81 31 3d e0 ec 72 3d 74 da 5f bd 57 cf 27 bd
       0.04333668 0.059307933 -0.054651693 -0.04096922
000030 fb 9d 86 3c be 32 53 bd 50 53 1a bc 79 15 7f 3c
       0.016432753 -0.051562063 -0.009419277 0.015569084

res1.bn1.weight f4 [16]
000000 f1 36 72 3f a1 a0 74 3f 6f 11 72 3f 75 28 7a 3f
       0.94615084 0.955576 0.9455785 0.9771798
000010 2f 41 6d 3f 51 69 6f 3f 1a c7 87 3f 5c d3 74 3f
       0.9267759 0.93520075 1.0607636 0.9563501
000020 e2 94 71 3f d8 cf 6e 3f ee 87 67 3f 0f 25 68 3f
       0.943678 0.93285894 0.9044179 0.90681547
000030 0c 9d 6e 3f d9 6c 6f 3f a4 0a 6f 3f 90 97 6e 3f
       0.93208385 0.93525463 0.9337561 0.93200016

res1.bn1.bias f4 [16]
000000 22 ab 1e bc 9b 27 49 bd a8 e8 a8 3c e2 dc 58 bc
       -0.009684356 -0.049110036 0.020618752 -0.013236256
000010 3b 55 cb bb d9 e1 ac bc 8c e7 13 3b 60 e9 ff ba
       -0.0062052286 -0.021103786 0.0022568433 -0.0019524507
000020 f4 f0 2c bc d8 cb c1 bc 27 62 c8 bc c0 c5 1a bd
       -0.010555495 -0.02365677 -0.024460865 -0.037786245
000030 9e e7 89 bb 34 4f 02 bc 07 c6 69 3c 54 a2 64 3b
       -0.004208519 -0.007953454 0.014268405 0.0034886794

res1.bn1.running_mean f4 [16]
000000 3d fe 9d 3e 18 b9 f2 3e 4f 35 5e be 25 cb b0 3e
       0.3085803 0.4740684 -0.21700023 0.34529987
000010 4f 23 c6 3d e5 56 cf 3e 9c 69 01 3f 90 2e 6e 3e
       0.09674703 0.40495983 0.5055177 0.2325995
000020 a7 ac 4b 3e 9d be c3 3e 9f 2a 5c be fc a8 c6 be
       0.1989008 0.38231364 -0.21500634 -0.388008
000030 95 ad cc 3e c2 77 bc bd 36 ab bd be 57 f3 ac be
       0.39976183 -0.092025295 -0.37044686 -0.33779404

res1.bn1.running_var f4 [16]
000000 dc a7 a7 3f eb 72 fe 3f ed 51 e5 3f ab fd c1 3f
       1.3098102 1.987882 1.7915627 1.5155538
000010 78 cc cb 3e 06 c9 65 3f 57 c9 21 40 c1 65 f5 3e
       0.39804435 0.8975986 2.5279138 0.47929195
000020 38 31 20 40 30 95 b3 3f 87 eb 60 3f ba 88 3d 40
       2.503004 1.4029903 0.87859386 2.9614701
000030 09 0f 47 40 d8 f1 50 3f 3e 70 15 40 77 db 11 40
       3.1102927 0.81619024 2.3349757 2.27902

res1.conv2.weight f4 [16, 16, 3, 3, 3]
000000 a0 77 1a bd dd 06 6a bd e3 d7 4c 3b 02 02 4d bc
       -0.03771174 -0.05713545 0.0031256608 -0.012512686
000010 54 e4 5e bd 90 8e 48 bc a3 82 ab 3c 6f 06 8b 3b
       -0.05441697 -0.012241021 0.020936316 0.0042427103
000020 b2 26 14 bd 1b dd 3d bd eb b6 0c bd b3 2a 71 bd
       -0.036169715 -0.04635344 -0.03435413 -0.05887861
000030 6a bf 21 bd 60 ba 8f 3b 0c 9e 0b ba ed 62 6e bc
       -0.039489187 0.0043862313 -0.000532598 -0.014549953
000040 f0 ce ad bb cd 33 0e bd 66 e6 0f bc da a2 16 3d
       -0.00530421 -0.03471737 -0.008782959 0.0367764
000050 04 ea 31 bd b7 03 3a bd 1b 54 08 3d 3d 79 ac 3c
       -0.043436065 -0.0454137 0.033283334 0.021053905
000060 5d a1 e2 bb 46 48 32 3c 8b 36 ef 3c f0 e1 e1 bc
       -0.0069162087 0.010881489 0.029200813 -0.027573556
000070 72 b6 5c bc 76 8a 6a bd 74 65 19 bd b6 f1 cc bc
       -0.013471233 -0.057260953 -0.03745027 -0.0250176
000080 d2 de 48 3c e4 b5 31 bd ac b7 d9 bc d2 94 27 bb
       0.012260156 -0.043386355 -0.02657684 -0.0025570882
000090 9e 32 31 bb ae 25 16 bd b2 39 81 3c 10 96 6e bc
       -0.0027038227 -0.036657028 0.015774582 -0.014562145
0000a0 7f 6d 36 bd db a8 8c 3c a9 b7 87 3b fa 0f 25 bb
       -0.044538017 0.01717036 0.004141767 -0.0025186525
0000b0 3d d9 a5 3c 2f f1 0f bd fc 3d d1 3c 19 cb 15 bd
       0.020245189 -0.03514212 0.025542252 -0.036570642
0000c0 79 26 0b 3c 75 09 a3 3c 88 b3 99 3c e1 ee da 3c
       0.008493059 0.01990197 0.018762365 0.026725234
0000d0 7e 48 8e bb 24 7e b3 bc 00 ab 54 3d c9 d9 51 3d
       -0.004342138 -0.021910734 0.05192089 0.051233087
0000e0 1e 1d 47 bb c1 01 88 3c 9e 50 9b bc 91 cc e8 bc
       -0.0030382345 0.016602399 -0.01895934 -0.028417857
0000f0 b4 fb 98 3c 8c ee 9a 3c f9 2b 1f 3d a1 5f d9 bc
       0.018674709 0.018912576 0.038860295 -0.026534857
000100 36 86 39 3d d9 83 0b 3d fe 2f 19 3d f7 79 cc 3c
       0.04529401 0.034061287 0.037399285 0.024960501
000110 48 7d b1 bc 8c 0e ee 3c 33 65 9a 3c 71 33 40 3d
       -0.021666184 0.02905967 0.018847084 0.04692406
000120 77 5d df 3c 19 4d e6 bc 6c 05 64 bb 01 b5 52 3d
       0.027266247 -0.028112935 -0.003479327 0.05144215
000130 bb 3b 90 3c 15 80 49 3d 17 a6 ba ba f3 bc b7 3b
       0.017606607 0.049194414 -0.0014240172 0.0056072413
000140 15 9b 1a 3d c0 df ac 3c 7b f0 73 3c 8f c0 bb bc
       0.037745554 0.021102786 0.014888878 -0.022918968
000150 ff c0 52 bd b3 b9 00 3d 5f b8 bd 3c 73 23 0c bd
       -0.051453587 0.031427097 0.023159204 -0.034213495
000160 1f 8f 1a bd c7 a8 78 3c 70 66 d5 bb b6 1b ca bc
       -0.037734147 0.015176958 -0.0065124556 -0.024671417
000170 b9 73 e5 3c d8 66 0a bd 50 04 98 bc e9 62 5e 3c
       0.028009282 -0.033789486 -0.018556744 0.013573387
000180 4a 62 b7 bc 99 11 d8 bc a3 41 4c bd 08 80 01 bd
       -0.022385735 -0.026375579 -0.049867284 -0.03161624
000190 9c c9 78 bb 20 35 57 bd ff ce db bc 83 c2 75 3c
       -0.0037961965 -0.0525409 -0.026832102 0.0149999885
0001a0 5e dc 30 bd 57 18 bd bc 8e 77 b5 bc 26 c2 0d bd
       -0.04317891 -0.023082895 -0.022151735 -0.034608983
0001b0 47 9c b3 bc c5 c9 66 bd 24 05 98 bc 49 d5 28 bd
       -0.021925105 -0.056344766 -0.018557139 -0.04121903
0001c0 24 79 bc bc 18 d0 50 bc 5f 8d 07 bc e7 2d 71 bd
       -0.023006983 -0.012744926 -0.008273452 -0.058881667
0001d0 dc 3d 13 39 66 05 b3 bc 2a 2a 05 bc e8 ea 0a bd
       0.00014042057 -0.02185316 -0.0081277285 -0.03391543
0001e0 82 b8 65 3b 97 0b b5 bc 3e c6 8f bd a1 5e 1b bd
       0.0035052602 -0.022100253 -0.070202336 -0.037932042
0001f0 af 89 46 bc 26 a5 7c bc 1c 44 61 bb 7c dc 31 bd
       -0.012117787 -0.015420234 -0.0034372872 -0.04342316
000200 a8 f2 b5 3a 12 01 d4 3a 0e 03 14 3c 3f 32 a7 3a
       0.0013881521 0.0016174635 0.009033931 0.0012756063
000210 56 26 fc bc 9e fc 19 bd 46 8b 41 3c 18 f7 56 3c
       -0.030779999 -0.03759443 0.0118129905 0.013120435
000220 35 3b 8a 3c 3e 93 3c bd c2 0a 13 bd a1 35 99 3c
       0.016873935 -0.04603886 -0.03589893 0.01870233
000230 99 f7 2f bd c4 c0 35 bd 96 47 2b bd 96 cc e3 ba
       -0.042960737 -0.04437329 -0.041816317 -0.0017379697
000240 ae de 9c 3c c1 21 29 bd d8 5a c0 bc fc 2a e1 ba
       0.01914915 -0.041291956 -0.023480818 -0.0017178948
000250 89 e3 29 3c 2f cb 94 bc a3 fa 33 bd 4b 36 1d bd
       0.01036919 -0.018163292 -0.043940198 -0.038381856
000260 9b 6e b2 bc cc 95 5f bd 8e aa cb 3c 5b 21 2e bd
       -0.021781256 -0.054586217 0.0248616 -0.04251228
000270 a4 59 8b 3c 10 3c 94 bc 7a b4 a6 3c e1 12 63 bc
       0.017010517 -0.018095046 0.02034973 -0.013859482
000280 3f 4f 78 3c ee 1e f7 bc 70 3b 6a bd 8c d4 9c bd
       0.0151556125 -0.030166116 -0.05718559 -0.076577276
000290 4d b6 4d bc 22 c5 36 3c 19 91 ae bc ca 9f 26 b9
       -0.012555671 0.011155399 -0.021309422 -0.0001589052
0002a0 12 a7 ec bc d7 48 2c 3c b5 9f 47 bd 7c e6 42 3c
       -0.02888826 0.010515413 -0.048736293 0.011895772
0002b0 f8 fd 82 bd eb cd 8d bd 34 ca a2 b9 0d aa 3e bc
       -0.06396097 -0.06924041 -0.000310497 -0.011637223
0002c0 3f 58 0e 3c 53 46 94 bd 07 e7 6f bd f6 25 0b bd
       0.008688032 -0.07239976 -0.058569934 -0.03397175
0002d0 36 8d 71 3b 6f 1d 37 3c fd 36 56 bc e6 2e 22 bd
       0.003685785 0.011176451 -0.013074634 -0.039595507
0002e0 67 c0 84 bd 7e f8 2a bd a0 9a 31 bd e8 3d 51 bd
       -0.0648201 -0.041740887 -0.043360353 -0.05108443
0002f0 39 52 96 bd c0 12 04 3c 74 c2 d7 bb 0e 6a 28 3c
       -0.073399015 0.008061111 -0.00658446 0.010279192
000300 7d 4f 5d bc c6 c9 03 bd 28 90 6d bd 09 df 3a bb
       -0.013507721 -0.032174848 -0.057998806 -0.0028514287
000310 c5 88 b0 bc 5c 02 29 bc 61 93 c1 3b df f3 31 bc
       -0.021549592 -0.010315504 0.0059074615 -0.010861366
000320 f5 b1 47 3b 6c cf 65 bd 2e 0c 81 3c d1 62 14 bc
       0.003047106 -0.056106016 0.015752878 -0.009056763
000330 a1 e9 1b bd 6a 81 18 bd 5f e9 b6 3c 50 17 ce bc
       -0.038064603 -0.037232794 0.022328077 -0.0251576
000340 03 21 b5 3c 9d a9 a5 3c ec 2f b8 3b 50 16 82 bd
       0.022110468 0.02022248 0.005620947 -0.06351912
000350 9c fe 18 bd a7 c8 35 bd b7 c3 3f bd ec fb ba bc
       -0.03735219 -0.04438081 -0.046817508 -0.022825204
000360 b5 58 a4 3c b0 2b 4d 3c fd 5f c9 bc f7 4c 81 3b
       0.02006183 0.012522623 -0.024581904 0.0039459425
000370 18 33 0c bd 38 ba 61 bd 74 96 64 bd 0b 3c c1 3c
       -0.034228414 -0.055109233 -0.055807546 0.023588201
000380 8e 32 c7 bc 43 51 1b 3c 2a 1c e1 b9 44 39 b2 bc
       -0.024316099 0.0094798235 -0.00042936328 -0.021755822
000390 46 78 62 3c 32 39 15 bd 13 ab 65 bd 17 7f 36 3b
       0.013822621 -0.0364315 -0.056071352 0.0027846748
0003a0 20 b0 12 bc 52 03 55 bc fd 0f b2 bc a2 81 57 bd
       -0.008953124 -0.01300128 -0.02173614 -0.05261386
0003b0 1f 6e 8b bb 31 de 36 bd 5f 72 9e 3c 80 da a6 bc
       -0.004255071 -0.044645492 0.019341646 -0.02036786
0003c0 82 5b 04 bd a1 ab 11 bd 2f 87 a7 bc 73 42 99 3c
       -0.03231383 -0.03556407 -0.020450203 0.018708443
0003d0 f2 b1 57 bd 28 22 6f 3c 30 3b 45 bd cd 63 e1 bc
       -0.052659936 0.014595546 -0.04815215 -0.027513409
0003e0 04 62 d9 bc 42 9a fe bc 50 d2 77 bd bb 45 80 3b
       -0.026535995 -0.031079415 -0.060503304 0.0039145625
0003f0 6b 9c d3 3c 7b ba 0e 3c 58 05 33 bd 54 b9 a5 3c
       0.025831422 0.008711453 -0.043706268 0.020229973

res1.conv2.bias f4 [16]
000000 75 dd 2e bd e9 2e 0c bd ba 35 a8 bb 1f c5 bd bc
       -0.042691667 -0.034224425 -0.005133358 -0.023165284
000010 6c 7a d8 bb e6 8c fe 3b a0 b7 10 3d b2 73 24 bc
       -0.0066063907 0.0077682612 0.03533137 -0.01003735
000020 11 2b ea bc 24 57 b0 bc b8 96 cd 3c fd b4 ca bc
       -0.028584989 -0.021525927 0.025096282 -0.024744505
000030 86 7d d5 3b a4 d2 49 ba 79 81 60 bd 89 8f fc 3c
       0.0065152077 -0.00076989294 -0.054810975 0.030830162

res1.bn2.weight f4 [16]
000000 37 5a 6b 3f 8a 06 7b 3f 51 a3 7f 3f a9 36 6e 3f
       0.9193453 0.9805685 0.99858576 0.93052155
000010 dd 2c 75 3f c4 13 65 3f 24 cb 68 3f 63 4f 77 3f
       0.9577158 0.89483285 0.9093497 0.9660551
000020 94 21 6c 3f 66 81 76 3f 78 49 6b 3f 8f 9f 76 3f
       0.92238736 0.96291196 0.9190898 0.9633722
000030 ce bb 6a 3f ee cd 77 3f ac 3a 72 3f b6 1a 6d 3f
       0.9169282 0.967986 0.94620776 0.9261888

res1.bn2.bias f4 [16]
000000 5c 82 93 bc 07 6d 1b bd 2c 1d 27 bc e8 af 6e bc
       -0.018006496 -0.037945773 -0.010199826 -0.0145683065
000010 74 5b 0f 3c e4 43 4d bd 25 57 e3 bc d6 b2 73 bd
       0.0087498315 -0.050113574 -0.027751515 -0.059496723
000020 53 41 17 bc f9 11 eb bb fd 56 0d bd dd 7c 25 3c
       -0.009231883 -0.0071737734 -0.034506787 0.0101005705
000030 c2 a8 2b bd d7 65 44 bc 85 13 5e bc c0 6d ca bc
       -0.041908987 -0.011987171 -0.0135544585 -0.024710536

res1.bn2.running_mean f4 [16]
000000 15 d5 29 bf e1 f7 31 3f 1f 21 f6 3d 85 30 dc be
       -0.6634076 0.6951886 0.12018036 -0.43005767
000010 81 14 4f bf 5e eb 2d bf 64 f8 04 bf 33 67 91 3e
       -0.8089066 -0.67937267 -0.51941514 0.28399047
000020 b4 f1 19 bf 18 b7 63 3f 81 42 f8 be c3 e0 5b bf
       -0.60134435 0.88951254 -0.48488238 -0.85889834
000030 f4 92 ef be 9c bb 42 3f 7c f9 7e 3f 7f 51 6d bf
       -0.46791804 0.7606752 0.9959943 -0.9270248

res1.bn2.running_var f4 [16]
000000 27 4e 89 41 12 cd cd 40 37 67 10 3f e3 20 fc 40
       17.16316 6.431283 0.56407493 7.8790145
000010 f5 6b 46 41 c1 78 b6 40 40 46 e4 40 a1 46 5a 3f
       12.401357 5.7022405 7.1335754 0.8526402
000020 67 bb 4c 40 f9 cf 5c 41 66 15 c8 40 60 c2 25 41
       3.1989381 13.800775 6.252612 10.359955
000030 29 f3 96 40 a0 b5 c4 40 66 d3 0c 41 c4 60 11 41
       4.7171826 6.147171 8.801611 9.086124

res1.downsample.0.weight f4 [16, 8, 1, 1, 1]
000000 9f 72 81 be dd ef a0 3c 50 23 0e bd 39 a6 88 be
       -0.2528276 0.019645626 -0.034701645 -0.26689318
000010 c9 0e 00 bb 81 75 07 3c 15 2d b0 3e 71 3e 5d be
       -0.0019540063 0.008267761 0.34409395 -0.21605851
000020 d6 70 42 3e da b4 6e 3c 70 57 29 be bb 07 63 3e
       0.18988356 0.014569486 -0.16537261 0.22170918
000030 fd 3e d5 bc 58 ee 67 3e aa c7 c7 3c 43 f6 66 be
       -0.026031012 0.22649515 0.0243872 -0.22554879
000040 f7 0a e9 bd 71 4c 11 be 80 b4 ec 3d 5d 48 55 be
       -0.113790445 -0.14189316 0.11557865 -0.20828386
000050 10 f6 54 be 4b 01 21 3e 3b 0a 44 be c3 9f a5 3e
       -0.2079699 0.1572315 -0.19144528 0.3234845
000060 b5 cf 61 3d 87 fe 41 3a 67 08 ee 3c 52 70 5b be
       0.055129725 0.0007400293 0.02905674 -0.21429566
000070 8c fb 34 be 49 60 db 3a 23 14 0c 3e e6 5f 9b be
       -0.17674083 0.0016737069 0.13679557 -0.30346602
000080 45 80 e0 bd a4 00 9a 3e d5 e9 97 3e 5f cf 1d 3e
       -0.109619655 0.30078614 0.29670587 0.15411137
000090 1c 1f b0 3e 1b cc 6f 3e d1 d9 9d 3e 77 1d 50 be
       0.34398735 0.23417704 0.30830243 -0.2032374
0000a0 20 90 9e be 99 78 f1 bb a0 bc 66 bd ba 79 a4 3e
       -0.30969334 -0.0073691127 -0.05633223 0.3212412
0000b0 6d a1 a4 bc 1f d4 97 3e 2d 50 69 be 3c 7d b2 bd
       -0.020096505 0.29654023 -0.22784491 -0.08715293
0000c0 45 17 02 be 8b bc 7c be 60 ed 93 be c7 01 c0 3d
       -0.12704189 -0.24681298 -0.2889204 0.09375339
0000d0 10 b7 0b 3e 89 af 87 be 04 c7 a6 3e 5c b9 c1 bd
       0.13644052 -0.2650111 0.32573712 -0.094591826
0000e0 3f c4 c9 bd 38 d7 97 3e 23 22 bb bd 63 dc 64 be
       -0.09851884 0.29656386 -0.091373704 -0.22349696
0000f0 ce 08 81 be 13 63 a1 3e ab 32 89 be 10 63 07 be
       -0.2520203 0.315209 -0.2679647 -0.13221383
000100 32 55 83 be 25 89 91 3e 85 06 68 be af c8 13 3e
       -0.25650936 0.28424945 -0.22658737 0.14432023
000110 27 1a 9e 3d b3 33 10 bd de f1 4f 3e d5 d5 ea 3d
       0.07719832 -0.035205554 0.20307109 0.114665665
000120 92 26 48 3e 3c ab 18 be 4d 58 a8 be 36 ee 5c 3e
       0.19545963 -0.1490907 -0.32879868 0.21575245
000130 5e 4e 38 bd 7b c6 20 3d 70 ff 9a be 7e bf 43 be
       -0.04499661 0.039251786 -0.30273008 -0.19116017
000140 dd da 9e be 32 1c 8d be 97 c0 94 bd 53 a9 56 be
       -0.31026354 -0.27560574 -0.07263296 -0.2096303
000150 e9 e2 b5 be 2d 64 7c be 02 c9 8e be 36 99 6a be
       -0.3552468 -0.24647589 -0.27887732 -0.22910008
000160 3f 14 b1 3e e0 87 2b 3e 84 6c f9 3d 8c 4b 7e 3e
       0.3458576 0.16751051 0.12178901 0.24833506
000170 fa 60 ae bd 94 9d 4e 3b 7e c0 0d be 32 d4 93 3e
       -0.085145906 0.003152703 -0.13842961 0.2887283
000180 ea 71 1b 3e 76 94 f0 3d 82 8c 81 be 42 8e 5c 3e
       0.15180174 0.11747067 -0.2530251 0.21538642
000190 e7 34 4b be 2d 25 87 3c 30 8b 80 3e 64 73 99 be
       -0.198444 0.016497219 0.25106192 -0.2997085
0001a0 8e f3 3c 3e 7b e0 95 3d ea fe 51 3e fb f9 5a 3e
       0.18452284 0.07318207 0.20507398 0.21384422
0001b0 54 d0 ab bd fe b5 13 be c9 11 c0 bd e9 39 7c 3e
       -0.08389345 -0.14424893 -0.09378392 0.24631466
0001c0 bd 0e 9d be 9a 63 5f 3e 2a a5 c5 3d 2b 15 2d be
       -0.30675307 0.21815339 0.09650643 -0.16902606
0001d0 0a da 3a 3e 60 aa 24 be 34 03 d7 3d e5 4a 5b 3e
       0.18247238 -0.16080618 0.10498658 0.21415289
0001e0 0d 62 97 3e c8 92 29 be df ba 69 3e 14 8b 8f be
       0.29566994 -0.16559899 0.22825192 -0.28035796
0001f0 49 e7 b7 bc d1 dd e8 bd e5 e6 87 bd ab 15 aa 3e
       -0.022449153 -0.11370433 -0.066358365 0.33219656

res1.downsample.0.bias f4 [16]
000000 a3 c9 a2 be b7 cf 30 be bd 5f 7e 3d 13 0a a6 be
       -0.31794462 -0.17266737 0.062103022 -0.3242956
000010 24 61 51 be 4b 88 a2 be dc db 6b 3e 7a 64 95 3e
       -0.20447212 -0.31744608 0.23033088 0.2917822
000020 ff d7 1b 3b 61 b0 a4 3d fc 62 4f 3e 10 d4 a5 3e
       0.0023779867 0.08041454 0.20252603 0.32388353
000030 15 a7 30 3d f1 70 7b bd 05 ea 24 3e cb f7 08 be
       0.04312809 -0.061387006 0.16104896 -0.13375776

res1.downsample.1.weight f4 [16]
000000 51 ea 78 3f 29 af 79 3f c6 ec 64 3f e9 f7 6e 3f
       0.9723254 0.975329 0.8942379 0.9334703
000010 9d 2a 6e 3f 4c 36 75 3f 6b 0d 6e 3f a1 89 66 3f
       0.9303377 0.95785975 0.92989224 0.90053755
000020 d7 02 74 3f 30 dc 77 3f 66 13 67 3f 91 8f 6f 3f
       0.95316833 0.96820354 0.90263975 0.9357844
000030 88 fc 6e 3f 80 f7 7a 3f 94 dc 76 3f 25 3c 73 3f
       0.9335408 0.98033905 0.96430326 0.9501365

res1.downsample.1.bias f4 [16]
000000 5c 82 93 bc 07 6d 1b bd 2c 1d 27 bc e8 af 6e bc
       -0.018006496 -0.037945773 -0.010199826 -0.0145683065
000010 74 5b 0f 3c e4 43 4d bd 25 57 e3 bc d6 b2 73 bd
       0.0087498315 -0.050113574 -0.027751515 -0.059496723
000020 53 41 17 bc f9 11 eb bb fd 56 0d bd dd 7c 25 3c
       -0.009231883 -0.0071737734 -0.034506787 0.0101005705
000030 c2 a8 2b bd d7 65 44 bc 85 13 5e bc c0 6d ca bc
       -0.041908987 -0.011987171 -0.0135544585 -0.024710536

res1.downsample.1.running_mean f4 [16]
000000 60 ec c7 be 2e 71 11 be 8d 45 cb 3c 2d 64 db be
       -0.39047527 -0.14203331 0.024813438 -0.42849866
000010 a0 52 3e 3d 96 2e a5 be 8c 1c 0c 3e fd e2 57 3e
       0.046465516 -0.32262105 0.13682765 0.21082683
000020 05 24 a0 3d 3c b3 49 bd ee a2 2d be f5 1c 02 3f
       0.0781937 -0.049243197 -0.16956684 0.50825435
000030 e4 5b 0a 3d be b9 72 3d 54 a2 60 3e 4c 34 c5 bd
       0.03377904 0.05925917 0.21936923 -0.096291155

res1.downsample.1.running_var f4 [16]
000000 03 7c c0 3d ac 39 da 3d fe ae e5 3d a4 ee ef 3d
       0.09398653 0.10655531 0.11215018 0.11715439
000010 1b 04 a3 3f ff 76 92 3e 69 bd b2 3e f1 f2 16 3e
       1.2735628 0.28606412 0.34910133 0.14741112
000020 40 72 c2 3d 33 08 d2 3d 20 71 6f 3f c5 0f 52 3e
       0.09494448 0.1025547 0.9353199 0.20513828
000030 38 cc 87 3d db 11 db 3d 33 e2 8b 3d 88 3c 34 3e
       0.066307485 0.10696765 0.068302535 0.17601216

res2.conv1.weight f4 [32, 16, 3, 3, 3]
000000 76 00 9f bc bb 87 0a bd 7a 9e 2a bb a8 2d 52 bd
       -0.0194094 -0.03382085 -0.00260344 -0.051313072
000010 8f 9a be 3c d7 d6 41 bd a2 d0 93 bc 7a e9 33 bd
       0.023267059 -0.047324028 -0.01804382 -0.043923832
000020 c2 73 c1 3b 89 d8 fd 3a 40 a0 62 bd da 96 56 bb
       0.005903692 0.0019366901 -0.055328608 -0.0032743723
000030 3e 3c dc bc c6 12 13 bd f6 cf b2 3a 59 5c 56 3c
       -0.026884194 -0.035906576 0.00136423 0.013083541
000040 cc 6e 42 bb 5f df 2a bd 6e 38 95 bc eb df d6 bb
       -0.002966809 -0.04171693 -0.018215384 -0.006557455
000050 62 a6 a5 3c db e9 59 bd 6f 65 05 3c 65 7a eb bc
       0.02022094 -0.053201538 0.008141859 -0.028744886
000060 8f fd d1 bc 84 03 da 3c c1 ca d7 3c 48 26 82 3b
       -0.025633601 0.026613005 0.026341798 0.0039718486
000070 69 7c 64 bc 93 3f 5c bd fd db 84 bd 72 04 2e bd
       -0.013945677 -0.053771567 -0.06487272 -0.042484708
000080 a1 22 49 3b 91 39 c0 bc 99 89 62 bd 26 02 05 3c
       0.0030690806 -0.02346495 -0.055307005 0.008118188
000090 4e e8 b8 bb 80 ba eb bc 80 37 86 bb 6f d1 9d bd
       -0.0056429273 -0.028775454 -0.0040959716 -0.07705962
0000a0 69 6e 18 bd 0c 83 98 bb 6f ca 5e bd 42 7a 53 bd
       -0.03721467 -0.004654294 -0.054392274 -0.051630266
0000b0 fa 29 48 bd 20 c0 94 bd 49 eb b1 bc 79 8c 0b 3c
       -0.048868157 -0.072632074 -0.021718638 0.008517378
0000c0 36 93 99 bd 2e 99 98 bd e5 d4 9b bd 8e 98 ff bc
       -0.074987814 -0.07451092 -0.07608966 -0.031200673
0000d0 b3 07 39 bd 79 ff 0b bd 6e 72 84 bd 24 01 28 bd
       -0.04517336 -0.034179185 -0.06467138 -0.041016713
0000e0 0d 81 09 bd 73 16 87 3c 74 a6 23 bd 0e c8 a4 bc
       -0.033570338 0.016490197 -0.039953664 -0.020114925
0000f0 be 7d 2d bd 2e f7 d6 bc fb c8 cc bc a6 95 bf 3b
       -0.042356245 -0.026240911 -0.024998179 0.005846697
000100 3d 9a 3b 3c 18 b0 24 bd 45 be 8f 3c 88 aa 45 3a
       0.0114503475 -0.040207 0.017546782 0.0007540365
000110 49 da c7 bc 21 14 ee bc 87 be 2b 3c b9 07 71 bd
       -0.024396079 -0.029062333 0.010482437 -0.058845256
000120 79 57 80 bc 97 9e 29 bd 1a 43 13 bd 2a 98 21 bc
       -0.01566671 -0.04141101 -0.035952665 -0.009862939
000130 16 b7 4b 3b 5e 0d 10 bc a3 74 80 bd 25 4d 97 3c
       0.003108447 -0.0087922495 -0.06272247 0.018469403
000140 a1 c6 ed 3c 62 ab ce 3b 78 32 88 3b a2 c4 96 3c
       0.029025378 0.0063070515 0.004156407 0.018404309
000150 a5 b6 02 3d 39 d6 cd 3b 2c b1 63 3d b9 24 2c 3c
       0.031912465 0.006281641 0.055588886 0.010506802
000160 3b 54 8f bc 35 c6 eb bc a7 d1 3d 3b 04 20 1a bc
       -0.017496219 -0.028781036 0.0028964074 -0.009407047
000170 34 63 2d 3d 04 f9 2e 3b 90 2a 2b 3d 58 3f f9 bc
       0.042330936 0.0026698718 0.041788638 -0.030425712
000180 21 e8 b9 3b b8 31 42 3c c1 89 f1 ba 9b e4 53 3d
       0.005673424 0.011852674 -0.0018427895 0.051731687
000190 3d 24 b9 3b 56 54 00 3d be 5d fb 3b 97 e5 17 3d
       0.005650072 0.03133043 0.007671087 0.03708419
0001a0 04 9f 0a 3d b0 42 10 3c 45 1c 4d 3d 59 4e 4e 3d
       0.033843055 0.008804962 0.050075788 0.050367687
0001b0 7c 6f 43 bd b3 6b 54 bd e9 ec ae bc 32 08 2a bd
       -0.04771374 -0.051860522 -0.021353202 -0.041511722
0001c0 f4 2e 47 bc 31 86 b3 bc 7b ad 14 3c b2 2f 65 bc
       -0.012157191 -0.021914573 0.009074564 -0.013988422
0001d0 79 87 d8 3b 88 91 39 bd bc 6d 95 bc de 01 d1 3c
       0.0066079465 -0.045304805 -0.018240802 0.025513586
0001e0 10 12 25 bd a0 a2 f0 3a a1 91 89 bc e6 ad 44 3c
       -0.04030043 0.0018359013 -0.016793074 0.012004351
0001f0 6d 23 2f bc 22 97 16 3b 75 54 03 3d af 7d a8 bb
       -0.0106895985 0.0022978266 0.032062966 -0.005141936
000200 95 93 ed 3c dc 96 04 39 f9 53 c3 bc c8 db 43 3c
       0.029001037 0.000126447 -0.023843752 0.011954255
000210 dd c8 40 3a df f6 9d bc c7 07 58 3c b6 8d 0d 3d
       0.000735415 -0.019282756 0.013185448 0.034558974
000220 5d e0 a2 3c d0 23 0d bd 99 d1 59 bd 03 ca 96 3c
       0.019882375 -0.03445798 -0.053178404 0.018406874
000230 41 8f b9 3c 86 08 0f bd 34 c8 d4 bc fa b1 d7 3b
       0.022651317 -0.034920238 -0.02597437 0.0065824958
000240 85 e6 b3 3c eb 42 bf ba 49 c8 de bc db e4 65 bc
       0.021960506 -0.0014592087 -0.027195113 -0.014031614
000250 a3 5f f9 bc a6 68 61 3c 4d 79 14 bc b2 e7 2e bb
       -0.030441111 0.01375786 -0.0090621235 -0.0026688394
000260 b9 fd 10 bd 3e 93 83 bc 58 4a 62 ba f8 12 ed b9
       -0.03539822 -0.016061421 -0.0008632294 -0.00045218295
000270 62 a3 4b bd ba 6d 23 bc 53 0d 0d 3d c8 8e 16 bd
       -0.04971636 -0.009974891 0.034436535 -0.03675726
000280 d8 46 f4 3c 3d ee 5d bb 7b d9 b4 3c b2 02 b4 bb
       0.029818937 -0.0033863925 0.022076359 -0.0054934854
000290 bc 7f a5 3c 2f b2 66 bd e6 62 6e bd 66 fc ca 3b
       0.02020251 -0.056322273 -0.058199786 0.006194639
0002a0 79 54 22 bd 0c c2 a9 3c b4 19 dc 3c ee a8 59 3c
       -0.03963134 0.020722412 0.026867725 0.013284905
0002b0 bd cb 60 bb b5 83 b3 3c 5e ef 19 bd b2 1f 5c bd
       -0.0034301125 0.021913389 -0.037581794 -0.053741165
0002c0 03 33 bb bc ed f5 8c 3c 57 f2 d9 3c 2f f4 0d bd
       -0.022851473 0.01720711 0.026604814 -0.0346567
0002d0 71 6f cb 3c 08 77 da bc f8 aa 01 bc 5d fe 24 bc
       0.024833413 -0.026668087 -0.007914297 -0.010070411
0002e0 fc a8 61 bc e2 82 41 3c f1 d4 a7 bc 1c c4 c2 ba
       -0.013773199 0.01181099 -0.02048728 -0.001485947
0002f0 96 57 cc ba 18 38 76 bd ec a4 5a bc af 45 80 bc
       -0.0015590067 -0.06011209 -0.0133449845 -0.015658228
000300 9a 7d cf bb 42 f7 1c bc e2 65 27 bd b2 e7 96 bd
       -0.0063321115 -0.009580435 -0.040868647 -0.07368411
000310 58 20 af bd 4a 56 63 bd 2d e3 a0 bd 3d ea ac bd
       -0.08551091 -0.055502214 -0.0785583 -0.08443115
000320 0a 7e 1b bd 9c 81 5c bd ef a6 17 bb 23 04 4e bd
       -0.037961997 -0.053834543 -0.0023140272 -0.050296914
000330 11 e5 05 bc fd 62 f7 bc 88 9f 67 bd df 13 92 bd
       -0.0081722895 -0.030198568 -0.056548625 -0.07132696
000340 b9 6f 05 bd 3e 8b eb bc 2e 92 2d bd 2a f1 6d bd
       -0.03257725 -0.02875292 -0.042375736 -0.05809132
000350 78 b5 99 bd d3 f1 6d bd 55 87 9a bb ec 95 ad bb
       -0.075053155 -0.05809195 -0.00471584 -0.005297413
000360 f4 85 1b bc 60 b9 69 39 f6 06 2f 3d 64 f9 a3 3c
       -0.009492386 0.00022289669 0.042731248 0.02001638
000370 db 15 51 3c 5f d3 ce ba ef 3a 14 3d a1 5e 8a bc
       0.012761558 -0.0015779546 0.036189016 -0.016890826
000380 5d 92 2a 3d 80 18 0e bd 85 f2 2d bc 4b 2b cb 3b
       0.04164349 -0.034691334 -0.010616903 0.0062002293
000390 04 43 3e 3c 5c c6 1a bd 22 89 01 bd 96 19 58 3c
       0.011612657 -0.037786826 -0.03162492 0.013189694
0003a0 12 d3 ae 3c 77 2c 0c 3d f7 34 ad bc 29 5b 10 bd
       0.02134088 0.034222092 -0.02114342 -0.035243187
0003b0 61 49 4e bc 62 f1 93 bb c9 08 9f bc 5f 87 94 bc
       -0.012590737 -0.004514859 -0.019413369 -0.018130956
0003c0 26 a4 7b 3c 14 35 82 3c bb 5d b3 bb c4 a8 12 bd
       0.01535896 0.01589445 -0.00547382 -0.03580548
0003d0 f6 6e fa bc 09 ed cd 3c b9 08 35 bd f9 88 b8 bc
       -0.030570488 0.025137441 -0.04419777 -0.022526251
0003e0 01 ea 4c bd d6 26 04 bc 12 85 08 3b 3a e0 33 3b
       -0.05002785 -0.0080659 0.002083127 0.0027446882
0003f0 73 eb 47 3c 1b 80 76 bd 37 d6 9c bb 94 bf 6f bd
       0.012202132 -0.060180765 -0.0047862786 -0.058532313

res2.conv1.bias f4 [32]
000000 f9 0b cf bc e3 86 37 bc e0 90 f9 3c 24 5d f8 3c
       -0.025274264 -0.011201593 0.03046459 0.03031785
000010 07 36 d4 bc b0 fb 28 3b 25 df 5c bd 89 1c 44 bd
       -0.025904668 0.0025784783 -0.053923745 -0.047878776
000020 8c 27 d2 bb a4 00 4e 3c c5 ae b8 3c 4d 87 cb bc
       -0.0064134058 0.012573395 0.022544274 -0.02484479
000030 4b 39 aa bc 6c da cd 3c 10 31 9b bc a0 b2 0b bd
       -0.020779273 0.025128566 -0.018944293 -0.034105897
000040 d7 d2 52 bc 89 65 e6 bc d8 c7 dc 3c 76 0c ee bc
       -0.012867651 -0.028124588 0.026950762 -0.029058676
000050 53 24 57 3d f9 e4 35 bc a2 ba 66 3b 62 00 2c bd
       0.052524876 -0.011101955 0.0035206457 -0.041992553
000060 38 6f a1 bc 12 a7 8a bc cd 71 c3 3c 75 c1 ae bc
       -0.019706354 -0.016925368 0.023857975 -0.021332482
000070 4f 12 47 bd c6 38 f6 bc e1 61 4d 3c 19 32 2d bc
       -0.048601445 -0.030056369 0.012535543 -0.010571026

res2.bn1.weight f4 [32]
000000 9c 7d 70 3f 70 2d 73 3f 0b 9f 70 3f 9e 4d 6c 3f
       0.93941665 0.9499121 0.9399268 0.92305934
000010 d8 f9 60 3f e3 a7 84 3f fd 8c 79 3f e2 4d 6d 3f
       0.8788123 1.0363735 0.97480756 0.92696965
000020 56 df 7a 3f d5 32 73 3f be 53 6f 3f bf 0b 76 3f
       0.97997034 0.9499944 0.93487155 0.96111673
000030 98 bd 75 3f 2a e9 6f 3f 6e 90 71 3f b7 aa 68 3f
       0.9599242 0.93715155 0.9436101 0.9088549
000040 9b 73 72 3f 7f d8 70 3f 02 ea 73 3f 7b 29 6e 3f
       0.9470765 0.94080347 0.9527894 0.93032044
000050 2f 58 64 3f 53 a9 7f 3f fa 55 6b 3f 88 e6 75 3f
       0.8919706 0.99867743 0.91928065 0.9605489
000060 31 02 6b 3f ea 0c 73 3f 30 a0 77 3f 99 ac 72 3f
       0.9180022 0.9494158 0.967288 0.94794613
000070 16 b0 75 3f d3 1e 73 3f e0 38 6a 3f 6f 6c 74 3f
       0.9597181 0.9496891 0.91493034 0.95477957

res2.bn1.bias f4 [32]
000000 fc f0 34 bb 2e 26 2d bd 32 cb 1d bd fd 21 3e bd
       -0.0027609458 -0.04227274 -0.03852386 -0.046419133
000010 d0 2d 84 bd 7a 2f 9a 3a 15 f0 c7 bc e5 d0 2b 3a
       -0.064540505 0.0011763417 -0.024406472 0.000655426
000020 17 85 6a bb b7 c5 80 3d 05 37 14 bc 55 e7 8d bc
       -0.0035784894 0.06287711 -0.009046321 -0.017322222
000030 e4 0b dd 3c 8f 51 63 3a 6e 3f c1 3b d8 d0 f2 bc
       0.026983209 0.0008671516 0.005897454 -0.0296406
000040 3b 01 83 3c 38 f5 3a bd 53 28 bc 3c 80 12 01 bd
       0.015991798 -0.045644015 0.022968447 -0.031511784
000050 78 35 eb bc 9a 52 6a bb 25 a7 8f bc b4 43 2c bd
       -0.02871202 -0.00357548 -0.017535755 -0.042056754
000060 5e 1d 13 bd 89 c6 0b bc 12 45 a6 3b c7 8c 0d bc
       -0.03591668 -0.008531221 0.005074152 -0.008639521
000070 98 75 ca bc 46 ea 7a 3c 92 fc f6 bc 0f 77 aa ba
       -0.024714276 0.015314644 -0.030149732 -0.0013005453

res2.bn1.running_mean f4 [32]
000000 32 86 82 bf d5 45 06 3c d7 a7 41 3f c7 17 54 3f
       -1.0197203 0.00819536 0.7564673 0.8284878
000010 0d d9 1b bf f4 93 31 3f df c3 05 3f 1b 31 8f bf
       -0.6087807 0.69366384 0.52252 -1.1186861
000020 09 ad 03 3f e9 bc 3e 3f f7 68 d1 be a9 8a 29 3f
       0.51435906 0.74507004 -0.40900394 0.66227204
000030 55 dc 2d bd bd 27 4d bf d0 04 6b be 50 44 d5 be
       -0.042446453 -0.8013876 -0.22951055 -0.4165368
000040 bb 13 90 3f 56 bb f6 3b 99 1c 6e bf 5b 8d 57 3f
       1.1256021 0.0075296564 -0.93012387 0.84200066
000050 d5 ae 2b bf 02 f0 23 bd 13 27 23 bf 83 89 9d 3f
       -0.6706365 -0.04002381 -0.637315 1.230759
000060 7c 51 cc bc fc 38 b1 3e 90 1a 2f 3f 3d a6 69 3f
       -0.024941199 0.34613788 0.68399906 0.91269284
000070 57 f9 6a 3f 58 23 ca be c9 a0 3d bf 8f 30 67 3f
       0.9178671 -0.3948009 -0.74073464 0.9030847

res2.bn1.running_var f4 [32]
000000 09 4b 55 41 a6 37 3c 41 98 58 19 41 cb aa ab 40
       13.330819 11.763586 9.584129 5.3645988
000010 6b ad c4 40 7c 94 b2 40 84 06 e8 40 66 bf 84 41
       6.146169 5.5806255 7.2507954 16.593456
000020 14 61 bd 40 f7 d2 2c 41 41 6d 15 40 ad e0 da 40
       5.9181004 10.801505 2.3347933 6.8399262
000030 d9 5e 42 40 8c 4a 53 40 fa 18 42 40 bd 44 f9 3f
       3.037039 3.301425 3.0327744 1.9474102
000040 2f bd b3 41 86 8d 77 40 fe 91 22 41 b0 c7 b5 40
       22.467375 3.868013 10.160643 5.680626
000050 ed 44 f6 40 45 4d 39 41 1c c4 a2 41 f9 16 f7 40
       7.695914 11.581365 20.345757 7.7215543
000060 23 e3 8e 40 20 ea 9d 40 14 a4 52 40 aa f6 d0 40
       4.4652267 4.9348297 3.2912645 6.5301104
000070 87 43 0e 41 69 88 ce 40 b7 c4 2c 40 28 46 d5 40
       8.891486 6.4541516 2.6995065 6.664814

res2.conv2.weight f4 [32, 32, 3, 3, 3]
000000 20 5e a2 3c ad c5 03 3d 97 2d 7b 3c 3a 2c 52 3c
       0.019820273 0.03217094 0.015330694 0.012827927
000010 1d ad 25 3c 0c 15 b9 bc d5 58 da 3c 2f 78 75 3c
       0.010112074 -0.022593044 0.026653687 0.014982267
000020 06 e3 ce 3b 27 4a c9 3c 24 68 b7 ba 68 41 c8 3c
       0.0063136844 0.024571491 -0.0013992828 0.02444525
000030 62 5d a7 bc 54 2b 2b 3b 6b bb b9 bb b1 ac ac 3c
       -0.02043027 0.0026118355 -0.005668094 0.02107844
000040 07 b1 37 bc de 40 a2 3c 89 2f dd 3c 3e f1 0e 3d
       -0.01121164 0.019806322 0.027000206 0.034898035
000050 15 41 bf bc f2 ec c0 bc 3c 2a e2 3c 50 6c ee 3b
       -0.023346463 -0.023550484 0.02760803 0.0072760954
000060 b1 be 81 bb 19 05 0d 3b 36 8f 24 bc c8 62 d7 3b
       -0.0039594998 0.002151793 -0.01004391 0.006573055
000070 59 b5 d3 3b 5f 6c 18 bc bd a3 ef bc 77 f6 d1 bc
       0.0064608273 -0.009303181 -0.029252881 -0.025630219
000080 87 de d6 3c c1 ad 4c 3c ea 21 a9 3a 54 90 27 3c
       0.026229156 0.012492598 0.0012903784 0.010227282
000090 29 73 e0 3b 52 56 00 bd 49 88 16 3b 35 c2 b2 3c
       0.0068496657 -0.03133232 0.0022969416 0.02182112
0000a0 dc 97 47 bc 1d 0f a1 3c 07 1a b8 3b ed d9 28 3c
       -0.012182202 0.019660527 0.005618337 0.010305864
0000b0 cc 8d 86 3c d3 ff ed bc 75 65 d6 3b 8e 08 0f bc
       0.016425036 -0.02905265 0.0065428563 -0.008730067
0000c0 76 7a dc bc 38 5b 19 3c b6 20 f4 3c e8 9a c5 3b
       -0.026913863 0.009360127 0.029800754 0.006030429
0000d0 05 b5 36 3b dc ed b5 bc 39 93 9e bb 2a 3c e9 3c
       0.0027878892 -0.022208147 -0.0048393277 0.028471071
0000e0 ff 22 f4 bc 07 f3 af bb 41 ac de 3c fe c4 d8 3c
       -0.029801844 -0.0053695473 0.027181746 0.02646112
0000f0 ce f3 a5 3c 18 0a ee 3c f6 ce 62 3c 6a 65 1e bc
       0.020257857 0.029057547 0.013843289 -0.009667734
000100 2d d6 4a bb 50 26 01 bd c9 8f 77 3c 60 87 eb bc
       -0.0030950413 -0.03153068 0.015109965 -0.028751075
000110 7a 82 34 3c 1d 32 e6 3b d8 60 0c 3c ac e4 72 bb
       0.011017436 0.007025017 0.008568011 -0.0037062569
000120 e2 a9 38 3c 0d 80 30 bc c6 62 78 3b 41 00 f0 bb
       0.011270972 -0.010772717 0.003790067 -0.007324249
000130 00 98 f9 3a e9 48 8e 3c 0b e9 f1 bc cc 01 01 bd
       0.0019042492 0.01736875 -0.029530069 -0.031495854
000140 f3 2a e8 3c 8a 32 e0 bb b7 e0 05 bd da d4 3c bc
       0.028340792 -0.006841962 -0.032685008 -0.011525357
000150 8e eb 04 bd c9 f0 6b bb e4 3e 11 bc d7 ab 15 bd
       -0.032451205 -0.0036001673 -0.008865092 -0.036540832
000160 5e 85 14 bc f5 fe c3 bc 1d 54 d0 bc 4f bd c9 ba
       -0.009065 -0.023925284 -0.025430733 -0.0015391501
000170 a1 a3 e6 bc 1e dc f3 bc 1c 10 98 3c 6a 9d 95 bc
       -0.028154196 -0.029768046 0.018562369 -0.018263537
000180 a6 c1 06 bd ad 3f f1 ba ed cf 5e bc 7c c5 03 bd
       -0.03289952 -0.0018405818 -0.013599378 -0.032170758
000190 37 ab 19 bc b0 00 93 bb fe 9d 92 3b 48 b7 32 bc
       -0.0093792 -0.004486166 0.0044744005 -0.0109079555
0001a0 91 ed d1 3b 8d 49 30 bc 7a 37 ff bc 42 8b e5 bc
       0.006406494 -0.010759723 -0.031154383 -0.028020505
0001b0 3a 07 cd bc f9 ce a6 bc 71 dc 4c 3c 8b 8f a3 3c
       -0.02502786 -0.020362364 0.012503729 0.019965908
0001c0 f8 4a 5a 3c 44 bf 8a bc ea 86 b1 bb 27 f5 2d 3b
       0.013323538 -0.016936906 -0.0054176943 0.0026543827
0001d0 80 e3 81 bc 8f 28 bd 3b e5 97 a0 bb f9 eb 08 3b
       -0.01585555 0.005772657 -0.0049009197 0.0020892604
0001e0 de 90 82 3c a0 69 6d 3c 19 de ce bb 41 45 d4 bc
       0.015938219 0.014490515 -0.006313097 -0.02591193
0001f0 80 e4 47 bc 59 dd ef 3c 1c 50 d7 3c 7a a5 af 3c
       -0.012200475 0.029280351 0.026283316 0.02144121
000200 75 53 9a bb df 8d 03 bc 2b 67 98 3c a1 57 35 bb
       -0.004709656 -0.00802943 0.018603882 -0.002767064
000210 be 27 c4 3b 3a 46 d2 3c de f9 87 3c 3a 36 e8 bc
       0.005986183 0.025668252 0.016598638 -0.02834617
000220 23 f5 37 bb f2 e6 02 bd 33 d9 fa bc 43 36 c8 bb
       -0.0028069697 -0.031958528 -0.030621147 -0.006109984
000230 ce f5 5f bc 67 9b 46 3b 39 fe bb 3c 78 b2 97 bb
       -0.013669444 0.003030503 0.022948371 -0.0046294294
000240 14 58 01 bd 8f cf 86 3a 59 ea da bc a1 b6 02 bd
       -0.03157814 0.0010285246 -0.026723074 -0.03191245
000250 32 4e d0 bc d4 3e 89 bc 98 ec 9e 38 4f 53 29 3c
       -0.025427911 -0.016753592 7.578096e-05 0.010334804
000260 f2 8c 92 bc 0c 65 04 3c 4f 86 6b 3c 8e a8 83 bb
       -0.017889474 0.008080732 0.014375283 -0.004017896
000270 b9 f0 60 bc f7 85 35 bc 8f 58 90 bc a5 0a 57 3b
       -0.013729268 -0.011079303 -0.017620353 0.003281274
000280 3c 00 82 3c fd 62 fe 3b e7 b4 35 bc fc f2 6c 3c
       0.015869252 0.007763265 -0.011090494 0.014462229
000290 51 f4 fe 39 ec e1 b9 bc ce ec 7f 3c e5 38 83 bc
       0.00048628685 -0.022690736 0.0156204235 -0.01601834
0002a0 a7 81 b6 bc 44 16 eb bc 50 e0 ad 3b 79 eb 44 3c
       -0.02227862 -0.02869714 0.005306281 0.012019032
0002b0 f0 71 bb 39 d2 ea 72 3c f1 b0 4d bc 2c a6 f5 3b
       0.0003575231 0.014826493 -0.012554393 0.007496616
0002c0 ba 1b 1f bd 4a c5 64 bc 87 50 1c bd f0 80 17 bd
       -0.0388448 -0.013963053 -0.038162734 -0.0369882
0002d0 df 24 bd 3c 41 08 0b bd 2b e1 80 3c 80 a8 32 3c
       0.02308887 -0.03394342 0.015732368 0.010904431
0002e0 d1 ae 1a 3c fe 04 1e bc f1 a4 a0 bc 3d 75 33 3c
       0.009441094 -0.009644745 -0.0196099 0.010953245
0002f0 f9 2b 32 bc e0 49 09 38 6d 46 cc 3b 24 c8 27 3d
       -0.010874742 3.2732147e-05 0.0062339813 0.040962353
000300 91 f9 5a bc 43 7f c9 3c b5 a1 1a bc 1b 4c 19 3d
       -0.013365165 0.024596816 -0.009437968 0.037426095
000310 95 96 3d bc 66 2f f8 3b d0 6a 25 bc 64 de 7a 3c
       -0.011571546 0.0075740097 -0.010096267 0.015311811
000320 7a d6 5c 3c aa c1 e6 bb 4b b5 1e 39 cb 33 d5 3c
       0.01347887 -0.0070421295 0.00015135591 0.026025673
000330 69 a6 c7 3c 72 ec c8 3c 17 c8 36 bc 29 9d bc 3c
       0.024371343 0.024526808 -0.011156104 0.023024159
000340 c6 e6 59 3c 7c b4 23 3d 1b 50 8e 3c 91 d2 a7 3c
       0.01329965 0.039967045 0.017372182 0.020486148
000350 28 ba e1 3c e9 18 da 3b d5 50 b8 3c 55 a9 8a bc
       0.027554587 0.0066558016 0.022499481 -0.016926447
000360 41 61 a3 bc 96 f8 29 bd ac 4c 09 bd 13 b8 05 bc
       -0.019943835 -0.041496836 -0.033520386 -0.0081615625
000370 72 7b 0e 3c 51 60 eb bc 4e 6f 95 bb bd 48 3d bd
       0.008696424 -0.02873245 -0.0045603877 -0.046211947
000380 11 14 bf 3b 96 20 d7 bc 9b 23 6d 3c 75 9b e6 bc
       0.0058312495 -0.026260655 0.014473821 -0.0281503
000390 c8 be 5f 3b d2 25 26 bd 3c 87 61 bc fe 18 35 bc
       0.0034140814 -0.040563412 -0.013765153 -0.011053322
0003a0 d2 b0 5f 3c fe 08 3c 3b ad b6 25 bd a2 f6 91 bc
       0.013652997 0.0028691883 -0.040457416 -0.017817799
0003b0 8b bb 08 bc 60 40 02 3c 03 2b 2f 3b 3b 43 f1 bc
       -0.008345495 0.0079499185 0.0026728518 -0.029451003
0003c0 74 52 b0 bc 2a 25 9a 3c a2 da c6 bb c4 7d 82 3b
       -0.021523692 0.01881655 -0.0060685435 0.0039822776
0003d0 74 65 cd 3c e7 42 f1 3c df 24 3a 3c bd 4a 08 bb
       0.02507279 0.029450847 0.01136133 -0.00207965
0003e0 b4 45 bd bc 33 21 aa bc 1c 3a d1 3c a5 1f d4 bc
       -0.023104526 -0.020767784 0.025540404 -0.025893996
0003f0 a0 d7 87 3c c9 2a fe bc 65 35 1d 3c 7e 36 56 3c
       0.01658231 -0.03102626 0.00959525 0.013074515
