high_risk_with_fe_brain_age_model.pth (torch, 810130 bytes, 125 tensors)

initial.0.weight f4 [8, 1, 3, 3, 3]
0	0x3ddeb7a8	0.108748734
1	0xbde31fe4	-0.11090067
2	0x3e2d3f9a	0.16918793
3	0xbe3322ef	-0.17493795
4	0xbdd0a5dd	-0.10187886
5	0xbe461bae	-0.19346496
6	0x3dd5737e	0.10422419
7	0x3e1e208b	0.15442102
8	0x3d9a7453	0.07541718
9	0x3df29a38	0.11845821
10	0x3e25df3f	0.16198443
11	0xbd909b73	-0.070608996
12	0xbe449c02	-0.19200137
13	0xbe42760c	-0.18990344
14	0xbdac5130	-0.08413923
15	0xbd8c0f96	-0.0683891
16	0xbe3915e0	-0.18074751
17	0x3d5b92f9	0.05360696
18	0x3cf7eebc	0.030265205
19	0x3c93b98c	0.018032812
20	0x3e01b28b	0.12665765
21	0xbdde2992	-0.10847773
22	0x3e0e4d94	0.13896781
23	0xbdb17970	-0.086657405
24	0x3d8ae53e	0.06782006
25	0x3dea2fdb	0.11434909
26	0xbc4d4a41	-0.012529911
27	0x3e405bac	0.1878497
28	0xbc93e0ee	-0.01805159
29	0x3e2182da	0.15772572
30	0x3d601cd5	0.054714996
31	0x3c26deeb	0.010184984
32	0xbd930ee1	-0.07180572
33	0x3c9acbf7	0.018896086
34	0xbd596ef0	-0.053084314
35	0xbe334471	-0.17506577
36	0xbe019764	-0.12655407
37	0x3d718d9a	0.058972932
38	0x3d4d3099	0.050095174
39	0xbe29a106	-0.16565332
40	0x3d89b1b6	0.06723349
41	0x3dcad2e8	0.099035084
42	0x3d967d73	0.07348146
43	0xbe1025a9	-0.14076866
44	0xbd59577a	-0.05306194
45	0xbd8f7951	-0.07005561
46	0x3e0f0666	0.13967285
47	0x3e2c9390	0.16853166
48	0xbda3a74c	-0.07990894
49	0xbbced570	-0.006312065
50	0xbde5e3d6	-0.11225097
51	0xbd49b433	-0.049244117
52	0xbd1a2966	-0.037637137
53	0x3e2955bc	0.16536611
54	0xbe21cdd4	-0.15801173
55	0xb996d4c9	-0.00028768767
56	0x3d96982d	0.07353244
57	0x3de86d03	0.11348917
58	0x3dd2e8fc	0.102983445
59	0x3dbe86e3	0.09303071
60	0x3d2e8cf0	0.042614877
61	0xbe0e5d6d	-0.13902827
62	0x3d8ad4d6	0.067788765
63	0xbe296ae5	-0.16544683
64	0x3d904fe2	0.070464864
65	0x3e01f8a1	0.126925
66	0x3c4d347d	0.012524721
67	0x3d0cba9c	0.034357652
68	0xbe0759e4	-0.13217884
69	0xbdafc9fd	-0.08583448
70	0x3c8a0149	0.016846316
71	0x3d87fb58	0.06639737
72	0x3cf1ff20	0.029540598
73	0xbda10bc9	-0.07863576
74	0x3e1f167a	0.15535918
75	0x3e0f398c	0.13986796
76	0xbb6f45f3	-0.00365102
77	0xbdc9ddc1	-0.09856749
78	0x3dd7d18a	0.10538013
79	0xbc9006e3	-0.017581409
80	0xbe45e8d2	-0.19327095
81	0x3e259457	0.16169868
82	0xbb8fa342	-0.0043834755
83	0xbe3a5665	-0.1819702
84	0xbd71bba1	-0.059016827
85	0xbce77894	-0.028255738
86	0x3d2b3596	0.04179915
87	0xbe28a5b5	-0.16469462
88	0x3e156804	0.1459046
89	0x3d522db8	0.051313132
90	0xbe0be00d	-0.13659687
91	0x3db8fcd3	0.090325974
92	0x3e2a0ff9	0.16607656
93	0xbe4b1b07	-0.19834529
94	0x3da9edec	0.08297333
95	0xbe144234	-0.1447838
96	0x3da11df7	0.078670435
97	0xbd9d3095	-0.07675282
98	0xbd2bf8b7	-0.04198524
99	0xbdbf5881	-0.09343053
100	0x3cb0dde5	0.021590183
101	0xbd799357	-0.06093153
102	0xbe015123	-0.12628607
103	0xbdc54610	-0.09632504
104	0x3e20da16	0.15708193
105	0xbe22d44e	-0.159013
106	0xbe27138e	-0.16316053
107	0x3da973e8	0.082740605
108	0xbe07c09d	-0.1325707
109	0x3cc05476	0.023477774
110	0x3dec9e20	0.115535975
111	0x3d0c625a	0.034273483
112	0xbd43aae0	-0.04777038
113	0xbda5a0a9	-0.08087284
114	0x3e348b6b	0.17631309
115	0xbe0fb8ac	-0.1403529
116	0x3de8cf0a	0.113676146
117	0xbdad2464	-0.084542066
118	0xbd16881e	-0.036750905
119	0x3d07a6d7	0.033118095
120	0xbceace50	-0.02866283
121	0x3df13605	0.117778815
122	0x3e0ed301	0.13947679
123	0xbd33e757	-0.043921795
124	0x3e12c9ca	0.14334789
125	0x3d2b1a27	0.041772988
126	0xbd3cc0dc	-0.046082363
127	0xbd82c17f	-0.06384563
128	0x3e4fc530	0.20290065
129	0x3dd75b18	0.10515422
130	0xbd3d239c	-0.046176538
131	0x3e078302	0.1323357
132	0x3e415781	0.18881036
133	0xbd4a3020	-0.0493623
134	0xbe00e035	-0.12585528
135	0x3c8df9ca	0.017331023
136	0xbc993cf0	-0.018705815
137	0x3da50e32	0.08059348
138	0xbc954e86	-0.01822592
139	0xbd169425	-0.036762375
140	0x3e3dac82	0.18522838
141	0xbdf86e3b	-0.121304
142	0xbe0d86b9	-0.13820924
143	0xbdf703c0	-0.12061262
144	0xbdb0ac5e	-0.086266264
145	0xbe19e0dd	-0.15027185
146	0xbe24c969	-0.16092457
147	0xbdcf7aa8	-0.10130817
148	0x3de7cfab	0.113189064
149	0x3e1eb1f7	0.15497576
150	0x3cbf557a	0.023356188
151	0xbe1048e5	-0.14090307
152	0x3e2a52dc	0.16633171
153	0xbe3883b5	-0.18018992
154	0xbe270991	-0.16312243
155	0xbbd91410	-0.006624706
156	0x3d7be30d	0.06149583
157	0x3e0bdfe6	0.13659629
158	0xbc0872e7	-0.008328176
159	0x3ce3beb0	0.027800888
160	0x3aa5731e	0.0012622809
161	0x3dacf23b	0.08444639
162	0xbc09b330	-0.008404538
163	0xbcb517cc	-0.022106074
164	0x3e191d82	0.14952663
165	0xbe009486	-0.12556657
166	0x3e1acf85	0.15118225
167	0xbd9555c8	-0.07291752
168	0xbe2d61f6	-0.169319
169	0xbd18d03c	-0.037307963
170	0xbe34f712	-0.17672375
171	0x3d8f6714	0.070020825
172	0xbdca724c	-0.09885082
173	0xbdbbf805	-0.09178165
174	0xbd9a669d	-0.07539103
175	0xbd91feb3	-0.07128658
176	0x3da65042	0.08120777
177	0x3dec4072	0.115357295
178	0x3dfa1b5f	0.12212252
179	0x3cf079a7	0.029354883
180	0xbddd8e4c	-0.108181566
181	0x3e4fbffd	0.20288081
182	0x3e083413	0.13301115
183	0x3da340e9	0.07971365
184	0xbce2882d	-0.027652824
185	0xbd43fdf9	-0.04784963
186	0xbd25fcdc	-0.04052435
187	0xbde4ac48	-0.111656725
188	0xbe228501	-0.1587105
189	0xbe05ec30	-0.1307838
190	0xbd29101c	-0.04127513
191	0x3e04a7a2	0.12954572
192	0xbe4591ea	-0.19293943
193	0xbda02661	-0.0781982
194	0xbd73b97d	-0.059503067
195	0xbc5664fc	-0.0130856
196	0xbe0e9d1f	-0.13927124
197	0xbd015789	-0.03157762
198	0xbe0ac714	-0.13552505
199	0x3ded3615	0.11582581
200	0x3c7c53bc	0.015400823
201	0xbc2551a2	-0.010090264
202	0xbd6b30dd	-0.057419647
203	0x3dbfe82d	0.09370456
204	0x3dd168b9	0.102250524
205	0x3d9a1730	0.07523954
206	0x3d01c0a2	0.03167785
207	0xbd8f2354	-0.0698916
208	0xbe39cd50	-0.18144727
209	0xbdb4ef41	-0.088346966
210	0x3da99437	0.08280223
211	0x3bf49f55	0.007465283
212	0x3bec2295	0.007206271
213	0x3d1aef4b	0.037825864
214	0x3de50eed	0.111844875
215	0x3b0909b2	0.002091032

initial.0.bias f4 [8]
0	0xbcef620a	-0.029221553
1	0x3da70c70	0.08156669
2	0xbe32db0d	-0.17466374
3	0xbd0921e2	-0.03347958
4	0xbe0402fc	-0.12891763
5	0x3d6ff0e9	0.05857936
6	0xbd0a5b3c	-0.033778414
7	0xbd455b25	-0.048182625

initial.1.weight f4 [8]
0	0x3f78bc57	0.97162384
1	0x3f798b3a	0.9747807
2	0x3f78d6ab	0.9720256
3	0x3f7a67c5	0.9781459
4	0x3f81ef21	1.0151101
5	0x3f78c300	0.97172546
6	0x3f79ca2e	0.97574127
7	0x3f772ec3	0.9655573

initial.1.bias f4 [8]
0	0xbbced2d2	-0.006311753
1	0xbb85085d	-0.004059835
2	0x3b91c25c	0.0044482183
3	0x3b63a1a6	0.00347338
4	0xbb177692	-0.0023111445
5	0x3ad9f19c	0.0016627791
6	0xbacda8bb	-0.0015690544
7	0xbaf351aa	-0.0018563766

initial.1.running_mean f4 [8]
0	0xbcba5a27	-0.022748066
1	0x3d9fc8dc	0.07801983
2	0xbe3f9200	-0.18708038
3	0x3be20654	0.006897727
4	0xbe2ddb1d	-0.16978116
5	0x3da656e6	0.08122043
6	0xbc879c18	-0.016553923
7	0xbcd23c19	-0.025663422

initial.1.running_var f4 [8]
0	0x3c57e1cd	0.013176394
1	0x3c1a0d39	0.009402567
2	0x3c5323d1	0.012886957
3	0x3d9a6eca	0.075406626
4	0x3d8ad872	0.06779565
5	0x3d1ec3fc	0.038761124
6	0x3c8ba734	0.017047502
7	0x3d1696d6	0.036764942

res1.conv1.weight f4 [16, 8, 3, 3, 3]
0	0x3cbeb2c6	0.023278605
1	0x3c2fa7c2	0.010721149
2	0x3d78ac4d	0.060711194
3	0x3d25e47d	0.040501107
4	0xbcfabd2d	-0.030607784
5	0xbd3ad28a	-0.045610942
6	0x3d05c6cc	0.03266029
7	0x3ca3987d	0.019970173
8	0x3d6a656c	0.05722563
9	0xbd2d376f	-0.042289194
10	0xbd3f50bc	-0.046707854
11	0x3d7683ad	0.06018417
12	0xbd15e702	-0.03659726
13	0xbd66bbec	-0.05633156
14	0xbd5f9bfa	-0.05459211
15	0x3cff17df	0.031139312
16	0xbd466f09	-0.048445735
17	0xbc2e5aab	-0.010641734
18	0x3d27d838	0.040977687
19	0xbd69c245	-0.057070035
20	0x3d7eac6e	0.06217616
21	0x3d4fb37b	0.050708275
22	0xbd4cffa8	-0.0500485
23	0x3d5cfdc6	0.053952955
24	0x3d029742	0.031882532
25	0x3d62b622	0.055349477
26	0x3d5b334c	0.053515717
27	0xbcd9c09f	-0.026581107
28	0xbd26b0ca	-0.040695943
29	0xbcb507d0	-0.022098452
30	0xbd7b05a8	-0.06128469
31	0xbb8b9444	-0.004259618
32	0x3d68a683	0.056799423
33	0xbd258c16	-0.0404168
34	0x3cf945ca	0.030428786
35	0x3c50d8e1	0.01274702
36	0xbcfc5a57	-0.030804796
37	0xbd49921c	-0.049211606
38	0x3d677aeb	0.056513708
39	0x3d8b7d31	0.06810988
40	0x3d761090	0.06007439
41	0x3c3609e6	0.011110758
42	0xbaf9f748	-0.0019070888
43	0x3d92d0ad	0.07168708
44	0x3c84e5a8	0.01622279
45	0xbd834fb8	-0.064116895
46	0x3d7ba11b	0.06143294
47	0x3d5198ec	0.05117123
48	0xbd0df5eb	-0.034658354
49	0x3d42d678	0.047567815
50	0x3d3dde44	0.046354547
51	0xbd5ca0f8	-0.05386445
52	0x3c21ea63	0.009882542
53	0x3d0c30ec	0.034226343
54	0xbd8793dc	-0.06619999
55	0x3bf908f9	0.0075999466
56	0x3d1aeaaf	0.037821468
57	0x3cd54bd4	0.026037134
58	0xbd2e5149	-0.04255799
59	0x3cbf1f00	0.023330212
60	0xbcd09954	-0.025463738
61	0x3d32ac12	0.04362113
62	0xbcd3d096	-0.025856297
63	0xbd86995a	-0.06572218
64	0x3d382071	0.044952814
65	0xbcd8c258	-0.026459858
66	0xbd01b8c3	-0.031670343
67	0x3d6521bd	0.05594038
68	0xbc8ba4ed	-0.017046416
69	0xbd8c704b	-0.06857356
70	0xbd56556b	-0.052327555
71	0xbc8d1b89	-0.017225044
72	0x3b8b7593	0.0042559593
73	0x3cc45e1d	0.023970658
74	0xbcaf292a	-0.021381933
75	0x3d1c754d	0.038197804
76	0xbd81300a	-0.06307991
77	0x3b0916db	0.0020918164
78	0xbd05ff12	-0.032713957
79	0xbd32be3b	-0.04363845
80	0xbcfbab4b	-0.030721327
81	0xbd61fefe	-0.05517482
82	0xbcc25740	-0.023723245
83	0xbcc68c34	-0.024236776
84	0x3cea3b8a	0.028592844
85	0xbccca2e3	-0.024980014
86	0xbccdebcd	-0.025136853
87	0x3ca01e3d	0.019545669
88	0x3b22f711	0.0024866501
89	0xbd9685ba	-0.07349725
90	0x3d393ce4	0.045224085
91	0xbd540206	-0.051759742
92	0x3c82106a	0.015876967
93	0xbd527605	-0.051382083
94	0xbc579b9e	-0.013159661
95	0xbcad8119	-0.021179723
96	0xbd95ed41	-0.07320643
97	0xbc977867	-0.01849003
98	0xbd0075f1	-0.031362478
99	0xbd8edf44	-0.06976178
100	0xbd870f92	-0.06594767
101	0x3d2b5554	0.041829422
102	0xbd6d6bdf	-0.057964202
103	0xbd213c29	-0.039364014
104	0xbd46d68b	-0.048544448
105	0xbd02543b	-0.03181861
106	0x3d2f5ded	0.042814184
107	0x3d615175	0.055009324
108	0x3d423146	0.047410272
109	0xbce9b9d5	-0.028530994
110	0x3cdd827b	0.027039757
111	0xbd33a645	-0.04385974
112	0x3c3d47dc	0.011552777
113	0x3d59d9b0	0.05318612
114	0x3d5e570b	0.05428223
115	0x3d4e67d5	0.05039199
116	0x3d666c37	0.056255545
117	0xbd02d9f1	-0.031946126
118	0x3d67ccb4	0.056591704
119	0x3d423705	0.047415752
120	0x3d896188	0.06708056
121	0x3b0864b2	0.0020811972
122	0x3d03851d	0.03210937
123	0x3d21f545	0.039540548
124	0x3d70f763	0.058829676
125	0x3c2ef92a	0.0106795225
126	0xbbf90960	-0.0075999945
127	0xbcd9be07	-0.02657987
128	0xbc1953e5	-0.009358381
129	0x3dae90b5	0.085236944
130	0x3d8ccc94	0.06874958
131	0x3bef05c3	0.007294388
132	0x3d68c3dd	0.056827415
133	0x3d1d1ea3	0.038359296
134	0x3daa63ab	0.083197914
135	0xbcb8bd7f	-0.022551296
136	0x3d9196c2	0.07108833
137	0x3c3004c2	0.010743322
138	0xbd08c44a	-0.03339032
139	0x3c72a6dd	0.014810291
140	0x3cbedcd1	0.023298653
141	0x3d80c727	0.06287985
142	0xbd0bbe18	-0.034116834
143	0x3da5b939	0.08091969
144	0x3d3c0bde	0.045909755
145	0x3d36d4ea	0.044636644
146	0x3d511278	0.051043004
147	0x3d2c4a93	0.042063307
148	0x3d14695a	0.036233284
149	0x3d6f7414	0.05846031
150	0x3d89f991	0.06737054
151	0x3d1dd3ce	0.03853207
152	0xbc8c3e55	-0.017119566
153	0x3cbf09d4	0.023320116
154	0x3b1f1f3d	0.0024280094
155	0x3d8c71a4	0.06857613
156	0x3d78ae4f	0.06071311
157	0x3d80f6de	0.06297086
158	0xbbccb620	-0.006247297
159	0x3d45881a	0.0482255
160	0x3ca06361	0.019578638
161	0x3d51313c	0.051072344
162	0xbd0dc80e	-0.034614615
163	0xbd896053	-0.067078255
164	0xbd284a7a	-0.04108665
165	0xbd436bbf	-0.047710177
166	0xbb575e62	-0.0032862653
167	0x3d1f5a45	0.038904447
168	0xbd0d6862	-0.034523375
169	0x3c7a3e63	0.015273663
170	0xbd8acfc0	-0.067779064
171	0x3a70604d	0.00091696234
172	0x3cdf0ae6	0.027226876
173	0xbd8704ea	-0.06592734
174	0x3d1b99c3	0.037988435
175	0x3d24dc8e	0.0402494
176	0x3b7c7612	0.0038522524
177	0x3d050afc	0.03248118
178	0xbbe6a48d	-0.007038659
179	0xbc0a2959	-0.00843271
180	0xbd4761fb	-0.048677426
181	0xbcdb0076	-0.026733618
182	0x3d7d7195	0.0618759
183	0xbd2d65b4	-0.04233332
184	0x3cb18afe	0.021672722
185	0xbc72fc23	-0.014830622
186	0x3d7712fa	0.06032083
187	0x3c9d17c1	0.019176366
188	0xbb959fb9	-0.0045661596
189	0xbcd0d934	-0.025494196
190	0x3d1b1be7	0.037868407
191	0xba03ade4	-0.0005023165
192	0xbbf2306c	-0.0073910262
193	0xbd2942a5	-0.041323323
194	0x3d0e54cb	0.034748834
195	0xbd1bd9bf	-0.038049456
196	0xbb9509d8	-0.0045482926
197	0x3c90f867	0.017696572
198	0x3cf1662d	0.029467667
199	0x3c629ff5	0.013832082
200	0xbd6f6314	-0.058444098
201	0x3d478a75	0.048716027
202	0xbd5cecb4	-0.053936675
203	0x3d6e6472	0.05820126
204	0x3cc7a885	0.024372349
205	0xbd2e90cd	-0.04261856
206	0x3d0009d9	0.03125939
207	0x3c2e156e	0.010625226
208	0xbcb75a41	-0.022381904
209	0xbcb4bb95	-0.022062102
210	0x3d4acbd0	0.049510777
211	0xbd49c397	-0.049258795
212	0xbd5f7adb	-0.054560523
213	0xbd0d5752	-0.034507103
214	0xbc1f3a97	-0.009718559
215	0x3d215f35	0.039397437
216	0x3d16c4b5	0.03680869
217	0xbcfdadeb	-0.03096672
218	0x3c55c1e1	0.013046713
219	0xbd9bfabf	-0.076161854
220	0xbc01c21c	-0.007919814
221	0xbda4f265	-0.080540456
222	0xbd3791a4	-0.044816628
223	0x3c982542	0.018572453
224	0xbc8d7b01	-0.017270567
225	0xbd194a2f	-0.037424263
226	0x3d3f141a	0.04665003
227	0xbda47bd0	-0.08031428
228	0x3d1a7a49	0.037714276
229	0xbc6970d1	-0.014248089
230	0xbd910f6c	-0.070830196
231	0x3b782e31	0.003786933
232	0x3d04cc3d	0.03242134
233	0x3cb7b523	0.02242524
234	0x3d0d789d	0.034538854
235	0x3ccc036a	0.024903972
236	0x3cb0cd1c	0.021582179
237	0xbba8cee8	-0.0051516183
238	0xbd060afa	-0.03272531
239	0x3d45aa63	0.048258197
240	0xbb0eaefe	-0.0021771784
241	0xbcdbf9a8	-0.026852444
242	0xbd44d91e	-0.04805862
243	0xbc6fe78a	-0.014642606
244	0xbd2b695a	-0.041848518
245	0xbda418cf	-0.08012544
246	0xbcb66831	-0.02226648
247	0xbcfa7178	-0.030571684
248	0xbc969fb1	-0.018386694
249	0xbcb3ee9b	-0.021964362
250	0xbd40069c	-0.046881303
251	0x3c9177ab	0.017757257
252	0xbd271c65	-0.040798564
253	0xbd551607	-0.05202296
254	0x3d0e9b51	0.03481609
255	0xbd90aa8e	-0.07063781

res1.conv1.bias f4 [16]
0	0xbc8da221	-0.017289223
1	0xbd17c9e4	-0.037057772
2	0xb91f6303	-0.00015200306
3	0xbd53aff8	-0.05168149
4	0x3c369a2e	0.011145158
5	0xbc83538c	-0.01603105
6	0x3c284ae9	0.010271766
7	0xbaf08db9	-0.0018352784
8	0x3b205f5e	0.0024470906
9	0xbd1f3916	-0.0388728
10	0x3d42b78f	0.047538336
11	0x3d665478	0.0562329
12	0x3ce0d694	0.027446069
13	0xbcf3e8ba	-0.029774059
14	0x3d2e0ae0	0.04249084
15	0xbd0d230e	-0.03445726

res1.bn1.weight f4 [16]
0	0x3f7a52dd	0.9778269
1	0x3f7b5fa6	0.9819282
2	0x3f7d63aa	0.989802
3	0x3f773474	0.9656441
4	0x3f854c52	1.0413916
5	0x3f7656aa	0.9622599
6	0x3f765bc4	0.96233773
7	0x3f788c98	0.9708953
8	0x3f7013e3	0.93780345
9	0x3f7ec3fb	0.9951779
10	0x3f7b0757	0.98058075
11	0x3f79b809	0.9754644
12	0x3f78fea9	0.9726358
13	0x3f7a84fd	0.97859174
14	0x3f77a05c	0.96729064
15	0x3f770d0e	0.96504295

res1.bn1.bias f4 [16]
0	0xbc276498	-0.0102168545
1	0x3b1fb6b9	0.0024370386
2	0x3c077690	0.008268014
3	0xb8c4024a	-9.346435e-05
4	0xbc859092	-0.016304288
5	0xbc68cd5a	-0.014209116
6	0xb9bf401e	-0.0003647813
7	0x3c1240c6	0.008926576
8	0xbcd5d4be	-0.02610242
9	0x3bc5d6ea	0.0060375826
10	0xbb0b2b65	-0.0021235582
11	0x3bb96e6e	0.005658916
12	0x3bf8d3fa	0.007593629
13	0x3c63b10f	0.0138971945
14	0xbc75e97d	-0.015009281
15	0xbb08af60	-0.0020856485

res1.bn1.running_mean f4 [16]
0	0x3e10499e	0.14090583
1	0x3db4364a	0.08799417
2	0x3e322c6b	0.17399757
3	0xbebb1107	-0.36536428
4	0x3ebd4242	0.36964613
5	0x3e4cb215	0.19989808
6	0xbe0e86fa	-0.13918677
7	0xbd4c1ddc	-0.049833164
8	0xbe020df2	-0.12700632
9	0x3db103ba	0.08643289
10	0xbe0af3a2	-0.13569501
11	0x3eb7ca81	0.35896686
12	0xbe4cab8f	-0.1998732
13	0xbef10418	-0.47073436
14	0x3d02b801	0.03191376
15	0xbe84c338	-0.2593019

res1.bn1.running_var f4 [16]
0	0x3f135959	0.5755821
1	0x3f5c96db	0.8616769
2	0x3fbab2b0	1.4585781
3	0x402bccae	2.6843677
4	0x3fba0173	1.4531692
5	0x3dd226ff	0.10261344
6	0x3e56d75b	0.20980589
7	0x3e8eb01e	0.27868742
8	0x3e27e6fe	0.1639671
9	0x3f21ef40	0.6325569
10	0x3dcbfa50	0.09959853
11	0x3f48a171	0.7837134
12	0x3ed55efc	0.4167403
13	0x3e84f832	0.25970608
14	0x3e341fb6	0.17590222
15	0x3e73d7bc	0.23812765

res1.conv2.weight f4 [16, 16, 3, 3, 3]
0	0x3d53307e	0.051559918
1	0x3d7b9fc2	0.061431654
2	0x3cc7f094	0.024406709
3	0x3aaacd3e	0.0013031138
4	0x3d4770ec	0.048691675
5	0xbaefd137	-0.0018296604
6	0x3bd6b94a	0.00655285
7	0x3b92f5ab	0.0044848523
8	0x3d0b250a	0.03397087
9	0x3d6f89c8	0.058481008
10	0x3d03ee25	0.032209534
11	0x3c0c8516	0.008576652
12	0x3d518abc	0.051157698
13	0x3cef61bd	0.02922141
14	0xbc0e999e	-0.008703617
15	0x3bbe66e1	0.005810604
16	0x3c80253e	0.015642758
17	0x3d5c3da3	0.05376972
18	0xbc919b83	-0.01777435
19	0x3c034181	0.008011223
20	0x3b803749	0.0039128405
21	0x3d426507	0.04745963
22	0x3d8bf695	0.06834141
23	0xbb0e79cb	-0.0021740075
24	0xbb21995a	-0.0024658055
25	0x3d6338d3	0.055474114
26	0x3c64457d	0.013932583
27	0xbbaa2a92	-0.005193063
28	0x3c269c6b	0.010169129
29	0x3be8751b	0.007094038
30	0x3d03e314	0.03219898
31	0x3c25da09	0.010122784
32	0x3c9c3f5c	0.01907318
33	0x3d126af2	0.035746522
34	0x3c2e29ed	0.010630113
35	0x3c8f3a6f	0.017483918
36	0x3d0fc58a	0.035100497
37	0x3be0e3ee	0.006863109
38	0xbb519f8a	-0.0031985962
39	0x3ca0b717	0.019618554
40	0x3d3cb8b0	0.04607457
41	0xbb3f8be6	-0.0029227673
42	0x3d1ed4ab	0.038777035
43	0x3d2f506b	0.042801302
44	0x3973de60	0.00023257127
45	0x3c49eb4b	0.012324165
46	0x3ce383ee	0.02777287
47	0x3d28fe13	0.04125793
48	0x3b8f7df0	0.0043790266
49	0xbc9f6be8	-0.019460633
50	0x3cb656e4	0.02225823
51	0xbcd42bb8	-0.025899753
52	0x3d1d3554	0.038380936
53	0xbbb5718e	-0.0055372184
54	0xbc80ede8	-0.015738443
55	0xbcf868c8	-0.030323401
56	0x3ce41460	0.027841747
57	0xbd46a097	-0.048492994
58	0x3c66d296	0.014088294
59	0xbd1eb4be	-0.038746588
60	0x3c2e3338	0.010632329
61	0xbd4c99fe	-0.049951546
62	0xbd54c75f	-0.051947948
63	0xbccc6c18	-0.024953887
64	0x3c9eda10	0.01939109
65	0xbca870b8	-0.020561561
66	0xbd1a48d5	-0.037667114
67	0xbd375fbf	-0.044769045
68	0x3cc5d6f5	0.024150351
69	0xbd11df9f	-0.035613652
70	0x3d14cbd9	0.036327217
71	0xbd3cd140	-0.046097994
72	0xbd5edeef	-0.054411825
73	0xbce1d99c	-0.027569585
74	0xbd1ccac2	-0.038279302
75	0xbd319eae	-0.04336422
76	0xbc967062	-0.018364135
77	0x3c21a762	0.009866567
78	0xbd596be2	-0.0530814
79	0xbd3fd6cd	-0.04683571
80	0xbc58aab7	-0.013224295
81	0x3c0ded80	0.008662581
82	0x3d1fab38	0.038981646
83	0x3c8d845f	0.017275034
84	0x3d20842e	0.039188556
85	0xbd1b6328	-0.03793636
86	0xbcd73877	-0.026272042
87	0xbc72e8e0	-0.01482603
88	0xbd066ac0	-0.03281665
89	0xbd292a78	-0.041300267
90	0x3d23d1d2	0.039995022
91	0x3ad9c991	0.0016615858
92	0xbad09155	-0.0015912453
93	0x3cbe5af6	0.023236733
94	0xbbe1e679	-0.0068939296
95	0x3d0c0a9b	0.0341898
96	0x3cdfb756	0.027309101
97	0x3cb17047	0.021659983
98	0xbc622e93	-0.0138050495
99	0xbd1e62bb	-0.038668375
100	0xbcd7f82c	-0.026363455
101	0x3c880547	0.016604079
102	0x3c73f09b	0.014888908
103	0x3d308564	0.04309596
104	0xbd11f9a2	-0.03563846
105	0x3c661e27	0.014045275
106	0xbd403770	-0.04692787
107	0x3ca75175	0.020424584
108	0x3cb3a63e	0.021929856
109	0x3d9bf335	0.076147474
110	0x3cad3fb9	0.02114855
111	0x3a645ce3	0.0008711351
112	0x3af85cbc	0.0018948535
113	0x3d76b273	0.060228776
114	0x3d5c40c9	0.05377272
115	0x3c42b719	0.011884474
116	0x3d5514f2	0.052021928
117	0x3cf98e4d	0.030463362
118	0x3ce89208	0.028389946
119	0xbbc1ea21	-0.005917803
120	0x3d5fce97	0.05464038
121	0x3cb98f26	0.022651266
122	0x3c6f2f2b	0.014598648
123	0x3d409070	0.047012746
124	0x3db01169	0.08597071
125	0x3c72a2b5	0.0148093
126	0x3b4ef2bf	0.0031577793
127	0x3da5acae	0.08089577
128	0x3a4d07ae	0.0007821274
129	0x3d54af5f	0.05192506
130	0x3d46016b	0.048341196
131	0x3caebd32	0.02133045
132	0x3d2953d1	0.0413397
133	0x3ca8b92b	0.020596107
134	0x3dba0ea9	0.090848275
135	0xbc8850de	-0.016640123
136	0x3cad8135	0.021179775
137	0xbcbb7f80	-0.022887945
138	0x3c734609	0.014848241
139	0x3c1e39c7	0.00965733
140	0xbc9d53bc	-0.019204967
141	0xbd48b363	-0.0489992
142	0x3b802857	0.003911059
143	0xbd2e2f14	-0.042525366
144	0xbd4b0451	-0.049564663
145	0x3cb88f71	0.022529336
146	0xbb6cd1bb	-0.0036135751
147	0xbc995758	-0.018718407
148	0x3bbc8885	0.005753579
149	0x3cc3470e	0.023837592
150	0xbd670d44	-0.056409135
151	0xbd46e3f0	-0.048557222
152	0x3c9c430b	0.019074937
153	0xbd44f101	-0.0480814
154	0x3c928981	0.017887833
155	0xbcf4f276	-0.02990077
156	0x3c3d4e6f	0.011554345
157	0x3cadf569	0.021235185
158	0xbd32aad7	-0.043619957
159	0x3c1632ef	0.009167417
160	0xbc815fd1	-0.01579276
161	0x3ce6f56f	0.028193204
162	0x3ca67260	0.02031821
163	0x3cf95cde	0.03043979
164	0x3bdda189	0.0067636413
165	0xbc5a3dfe	-0.013320444
166	0xbcbc157f	-0.022959469
167	0x3a28c868	0.0006438554
168	0xbd20f47d	-0.039295662
169	0xbd327b25	-0.04357447
170	0x3d069719	0.03285894
171	0x3ab6e5b7	0.0013953958
172	0x3d284c2b	0.041088264
173	0x3d4514c2	0.0481155
174	0x3d132092	0.035919733
175	0xbc0ad027	-0.008472479
176	0x3d488288	0.04895261
177	0xbd0a26bf	-0.033728357
178	0xbd0f9722	-0.03505624
179	0x3c063d7c	0.00819337
180	0x3d42c2ac	0.047548935
181	0x3ca106a1	0.019656481
182	0x3d1bd943	0.038048994
183	0xbb9dd0d6	-0.004816155
184	0x3d00da3e	0.031458132
185	0xbcd1b9ff	-0.025601385
186	0x3c9663f1	0.018358203
187	0x3d2d7bc0	0.042354345
188	0x3d0e4639	0.03473494
189	0xbd2948c2	-0.041329153
190	0xbc641470	-0.013920888
191	0xbd65858c	-0.056035563
192	0x3b345f9d	0.002752281
193	0xbd58b040	-0.05290246
194	0xbd5c4986	-0.053781055
195	0xbce552b4	-0.027993537
196	0xbc6ed82b	-0.014577906
197	0xbbfa896b	-0.007645776
198	0x3c5eb018	0.013591789
199	0xbd1059d1	-0.035241906
200	0x3b3d1142	0.0028849398
201	0x3c2e2864	0.010629747
202	0xbd0b6156	-0.034028374
203	0xbcc33f4d	-0.023833895
204	0xbd2e16b5	-0.042502124
205	0xbbbcf7a0	-0.005766824
206	0xbad08f97	-0.0015911934
207	0xbd39c420	-0.045353055
208	0x3c98edce	0.018668082
209	0x3cbfe674	0.023425318
210	0x3b8b5f16	0.0042532785
211	0xbba99fc8	-0.005176518
212	0x3cbe94e5	0.023264358
213	0xbd109934	-0.035302356
214	0xbc282032	-0.010261582
215	0x3ca06bcf	0.019582657
216	0xbcd26e59	-0.025687383
217	0x3cf022c1	0.029313447
218	0x3a45a098	0.0007538884
219	0xbd18931f	-0.03724968
220	0x3d22cf2e	0.039748363
221	0x3cd73cf8	0.02627419
222	0x3bf7c652	0.0075614834
223	0xbcb04312	-0.021516357
224	0x3d01a7b6	0.031654082
225	0x3d3dae17	0.046308603
226	0x3d3b1019	0.04566965
227	0x3d4871d1	0.04893667
228	0xbcd588be	-0.02606618
229	0xbbe26aaa	-0.006909688
230	0xb9fe343a	-0.00048485567
231	0xbb7f71a7	-0.0038977654
232	0x39a18c81	0.00030812997
233	0xbcaa3b56	-0.020780247
234	0x3d14ba6d	0.036310602
235	0xbd0da2f7	-0.034579244
236	0xbc1ef22f	-0.009701296
237	0x3c56c93a	0.0131095
238	0x3d3bca19	0.045847032
239	0x3d4825ee	0.048864298
240	0xbcaa5cbe	-0.020796176
241	0x3c39587f	0.011312603
242	0x3c6f1dbb	0.014594491
243	0xbc976408	-0.018480316
244	0x3cf5f0bb	0.030022016
245	0xbd2f01ee	-0.04272645
246	0x3ce74ccc	0.028234862
247	0x3afacf02	0.001913518
248	0xb9dcd0cc	-0.00042117236
249	0xba031a48	-0.00050011696
250	0x3c818395	0.015809814
251	0x3d206bd0	0.039165318
252	0x3b30b34a	0.0026962333
253	0xbbd50992	-0.006501385
254	0xbaf84bca	-0.0018943485
255	0x3cadaa5b	0.021199396

res1.conv2.bias f4 [16]
0	0x3c8b9039	0.017036544
1	0x3be2df24	0.006923573
2	0xbd7148d8	-0.05890736
3	0x3c1e4826	0.009660756
4	0xbd1bb5f0	-0.038015306
5	0x3c9236fd	0.017848486
6	0xbb6f5b5d	-0.0036522963
7	0x3be9355b	0.007116956
8	0x3a49cfc5	0.00076985016
9	0xbb80ae07	-0.0039269957
10	0x3d59ce9e	0.05317556
11	0x3c4eb423	0.01261619
12	0xbb3e96f5	-0.0029081677
13	0x3c3860ba	0.01125353
14	0x3d512897	0.0510641
15	0x3c807570	0.015680999

res1.bn2.weight f4 [16]
0	0x3f754edf	0.9582347
1	0x3f7ba074	0.9829171
2	0x3f82149e	1.0162542
3	0x3f80239f	1.0010871
4	0x3f7b67bf	0.9820518
5	0x3f7ba96a	0.9830538
6	0x3f7db05e	0.9909724
7	0x3f7bfc5d	0.9843195
8	0x3f7bd472	0.9837104
9	0x3f80f1d0	1.0073795
10	0x3f785b61	0.97014433
11	0x3f76acff	0.9635772
12	0x3f75a790	0.95958805
13	0x3f76791a	0.96278536
14	0x3f814d24	1.0101666
15	0x3f771de6	0.96529996

res1.bn2.bias f4 [16]
0	0xbc8e54d5	-0.017374435
1	0xbc46365b	-0.01209792
2	0xbbbb8e68	-0.0057237633
3	0xbb73d775	-0.003720728
4	0x3bd1a7ee	0.0063981926
5	0xbc8db622	-0.017298762
6	0xbbab8e46	-0.005235466
7	0x3c638281	0.013886095
8	0x3b817248	0.003950391
9	0x3cd051eb	0.025429687
10	0x3ac66099	0.001513499
11	0xbc985a6a	-0.0185978
12	0xbd0f055f	-0.03491723
13	0xbcaadf5a	-0.020858455
14	0xbcb9d0d0	-0.022682577
15	0xbbb7a26c	-0.005604079

res1.bn2.running_mean f4 [16]
0	0x3e99da48	0.30049348
1	0x3e774cd5	0.24150403
2	0x3ec0d4e8	0.37662435
3	0x3e3cbefe	0.18432233
4	0x3ec9a27a	0.39381772
5	0x3e8fc8be	0.28082842
6	0x3da034b5	0.07822553
7	0x3d7cded4	0.061735943
8	0xbf33bb53	-0.7020771
9	0x3f49afeb	0.78784055
10	0x3f072580	0.52791595
11	0xbee38110	-0.44434404
12	0x3f312051	0.69189936
13	0x3e908db4	0.2823311
14	0x3ec492d0	0.3839326
15	0x3d9800b3	0.07422008

res1.bn2.running_var f4 [16]
0	0x40120185	2.2813427
1	0x404a0833	3.1567504
2	0x3fc8af03	1.5678409
3	0x402c3c2a	2.6911721
4	0x3ff4874d	1.910379
5	0x3fe26efa	1.7690117
6	0x4035f9bd	2.8433678
7	0x40156fea	2.3349557
8	0x40289b2f	2.6344717
9	0x40f318ee	7.596793
10	0x3f826569	1.0187198
11	0x40087730	2.1322746
12	0x405d9b86	3.4626174
13	0x3f7afad6	0.98038995
14	0x4017c18d	2.3711884
15	0x406b7aa4	3.6793604

res1.downsample.0.weight f4 [16, 8, 1, 1, 1]
0	0x3c46864d	0.012116981
1	0xbe807d5d	-0.25095645
2	0x3e5d3cba	0.21605197
3	0xbe4ab155	-0.1979421
4	0x3e92549d	0.2858018
5	0x3ded7361	0.115942724
6	0x3e8067be	0.2507915
7	0x3d448f19	0.04798803
8	0xbeb694dd	-0.3566045
9	0x3e4fa387	0.20277224
10	0xbe905b62	-0.2819472
11	0x3e2760cb	0.16345517
12	0x3ddc9a0d	0.1077157
13	0x3e18907d	0.14898868
14	0xbe41af61	-0.18914558
15	0x3ea1d5ff	0.3160858
16	0x3bac0bde	0.005250438
17	0x3de72027	0.112854294
18	0x3d782cd9	0.060589645
19	0x3d8a6a7b	0.06758591
20	0xbe24688e	-0.1605551
21	0xbe970878	-0.2949865
22	0xbe178b16	-0.14799151
23	0xbcee8f28	-0.029120997
24	0x3ba8645e	0.005138918
25	0x3e5d0638	0.21584404
26	0xbe1092f4	-0.14118558
27	0xbe659ef8	-0.22423923
28	0x3e5cd3ee	0.2156522
29	0xbea18f42	-0.3155461
30	0xbe2be3df	-0.16786145
31	0x3e61a4b4	0.22035486
32	0xbeb8f4b4	-0.36124194
33	0xbe7b131f	-0.24519013
34	0x3e2a5ac2	0.16636184
35	0xbea20702	-0.31645972
36	0xbe88ec7c	-0.26742923
37	0xbbc42e4d	-0.005986965
38	0x3dd3f348	0.103491366
39	0x3e87010e	0.26367992
40	0x3e928fd6	0.28625363
41	0x3e75a72d	0.23989554
42	0x3bb1f2af	0.0054305415
43	0xbe9808bf	-0.29694173
44	0x3e0f1910	0.13974404
45	0x3e53c2f9	0.20679845
46	0x3e5a426d	0.21314402
47	0xbe0667bf	-0.13125513
48	0x3d8ce06d	0.06878743
49	0x3e1b1e4c	0.15148276
50	0xbc1b1be9	-0.0094671035
51	0x3d5db6a6	0.054129265
52	0x3eb2f0d1	0.34949353
53	0x3e31ac09	0.17350782
54	0xbe0966b3	-0.13418083
55	0x3e098ec6	0.1343337
56	0x3e2b398f	0.16721176
57	0xbe943ad8	-0.28951144
58	0x3d8a9988	0.06767565
59	0x3df45674	0.11930552
60	0x3e07e171	0.13269593
61	0xbde7a9b6	-0.11311667
62	0xbd9bf3cf	-0.07614862
63	0xbe79fc75	-0.24412711
64	0x3e694a0a	0.2278215
65	0x3c2b911a	0.010471607
66	0xbd990037	-0.07470744
67	0xbd07070b	-0.0329657
68	0xbe0811e9	-0.13288082
69	0x3e7429bc	0.23844045
70	0x3ea2dd09	0.3180926
71	0x3ca99be7	0.020704223
72	0xbeaa8a78	-0.33308768
73	0xbd38c491	-0.045109335
74	0x3dc0be9a	0.09411354
75	0xbe86391f	-0.26215455
76	0x3d1e2390	0.038608134
77	0xbdf67632	-0.12034263
78	0xbe6dbee3	-0.23217349
79	0x3ca85831	0.020549865
80	0x3ea0292c	0.31281412
81	0x3e1d5e26	0.15367946
82	0x3d063231	0.03276271
83	0x3e9e0483	0.30862817
84	0x3e642de1	0.22283126
85	0x3c835595	0.01603202
86	0xbe15a607	-0.14614116
87	0xbe18c793	-0.14919882
88	0xbe9ae7b9	-0.30254915
89	0x3e91e692	0.28496224
90	0xbe33d284	-0.17560774
91	0x3d63abe0	0.055583835
92	0xbe97865f	-0.29594705
93	0xbea773c8	-0.32705522
94	0x3e833257	0.25624344
95	0x3d251aa0	0.040308595
96	0xbeaf661e	-0.34257597
97	0xbd5c2667	-0.05374756
98	0x3bd044e9	0.006355871
99	0xbe3e0c0a	-0.1855928
100	0x3e2760f0	0.16345572
101	0xbea706d0	-0.32622385
102	0x3e195e16	0.14977297
103	0xbea67446	-0.32510585
104	0x3e02f246	0.12787732
105	0xbe1f3ef5	-0.1555136
106	0x3e921a84	0.28535855
107	0x3da99beb	0.08281692
108	0x3e20b59d	0.1569428
109	0x3e1c6630	0.15273356
110	0xbcd0905a	-0.025459457
111	0x3d565f24	0.052336827
112	0x3e21f4a6	0.15815982
113	0xbe76219a	-0.24036255
114	0xbeb42d59	-0.35190848
115	0xbcb57465	-0.022150228
116	0xbe310eaa	-0.1729075
117	0xbdfbf5f8	-0.12302774
118	0xbe19602a	-0.1497809
119	0xbe9187f0	-0.28424025
120	0x3e0ebc29	0.13938965
121	0x3ea8c526	0.32962912
122	0x3e09c0f0	0.13452506
123	0x3e90efed	0.2830805
124	0xbe53a32b	-0.20667712
125	0x3c72e754	0.014825661
126	0x3a9ab186	0.0011802174
127	0x3dad7a47	0.08470588

res1.downsample.0.bias f4 [16]
0	0xbe8a20a3	-0.26978025
1	0xbdb4f709	-0.08836181
2	0x3d63f3d0	0.05565244
3	0xbe8112c7	-0.25209638
4	0x3c6f38ae	0.014600916
5	0xbe2e7fef	-0.1704099
6	0xbc1ace86	-0.009448653
7	0xbdaeff6e	-0.08544813
8	0xbdf65931	-0.12028731
9	0xbe9a3659	-0.3011959
10	0xbe4edba0	-0.20200968
11	0x3e7e31b6	0.2482365
12	0x3cb678af	0.022274343
13	0x3dce4dff	0.1007347
14	0xbe0d07ba	-0.13772479
15	0xbeb4f155	-0.35340372

res1.downsample.1.weight f4 [16]
0	0x3f7ea11d	0.9946459
1	0x3f7e3564	0.9930022
2	0x3f712071	0.94190127
3	0x3f7aca4b	0.97964925
4	0x3f7814f5	0.9690698
5	0x3f796fc2	0.97436154
6	0x3f7acdc6	0.97970235
7	0x3f76f565	0.9646819
8	0x3f78943c	0.9710119
9	0x3f7c6c13	0.9860241
10	0x3f7b897b	0.98256654
11	0x3f7b4038	0.98144865
12	0x3f786a48	0.9703717
13	0x3f7dcb91	0.9913874
14	0x3f733780	0.9500656
15	0x3f7d0150	0.9883013

res1.downsample.1.bias f4 [16]
0	0xbc8e54d5	-0.017374435
1	0xbc46365b	-0.01209792
2	0xbbbb8e68	-0.0057237633
3	0xbb73d775	-0.003720728
4	0x3bd1a7ee	0.0063981926
5	0xbc8db622	-0.017298762
6	0xbbab8e46	-0.005235466
7	0x3c638281	0.013886095
8	0x3b817248	0.003950391
9	0x3cd051eb	0.025429687
10	0x3ac66099	0.001513499
11	0xbc985a6a	-0.0185978
12	0xbd0f055f	-0.03491723
13	0xbcaadf5a	-0.020858455
14	0xbcb9d0d0	-0.022682577
15	0xbbb7a26c	-0.005604079

res1.downsample.1.running_mean f4 [16]
0	0xbe325d98	-0.17418516
1	0xbd4e99ba	-0.050439574
2	0xbcb9ca53	-0.022679484
3	0xbe943db6	-0.28953332
4	0xbde0391e	-0.10948394
5	0xbd707dfe	-0.058713906
6	0x3e1513a0	0.14558268
7	0xbe05c103	-0.1306191
8	0xbc5f028c	-0.013611447
9	0xbeedc60e	-0.46440166
10	0xbd7b9206	-0.061418556
11	0x3e2a723c	0.1664514
12	0xbe1ae384	-0.15125853
13	0x3e6cecbc	0.23137182
14	0xbebf6001	-0.37377933
15	0xbe519a9b	-0.20469134

res1.downsample.1.running_var f4 [16]
0	0x3e3c27bc	0.18374532
1	0x3da23ea8	0.07922107
2	0x3cd4a0f5	0.025955657
3	0x3db99eaf	0.090634696
4	0x3e2932ab	0.16523235
5	0x3e163572	0.14668825
6	0x3e48a18c	0.19592875
7	0x3d650d8c	0.055921122
8	0x3d72fa8d	0.059320975
9	0x3d3954ce	0.04524689
10	0x3e160219	0.14649238
11	0x3e3c4fde	0.18389842
12	0x3d76c1c4	0.060243383
13	0x3e0cf7d1	0.1376641
14	0x3eb4a793	0.352841
15	0x3dc904a4	0.09815338

res2.conv1.weight f4 [32, 16, 3, 3, 3]
0	0xbd316fc5	-0.043319482
1	0xbd46bfd8	-0.0485228
2	0xbc246368	-0.010033466
3	0xbc952c57	-0.01820962
4	0x3d334dab	0.04377524
5	0x3d0116d5	0.031515915
6	0xbd1d492f	-0.03839987
7	0x3d34f3aa	0.04417769
8	0x3d17b3da	0.037036754
9	0x3d37d11c	0.044877157
10	0x3d00f2a3	0.031481396
11	0x3a271e6d	0.0006375078
12	0xbd0b4f79	-0.034011338
13	0x3c223997	0.009901426
14	0xbd185da3	-0.037198674
15	0xbbcd731a	-0.0062698247
16	0xbcac1c0e	-0.021009471
17	0xbd1abc62	-0.037777312
18	0xbb092ab6	-0.0020929999
19	0x3c89ee48	0.016837254
20	0x3b758756	0.00374647
21	0x3c935f1d	0.01798969
22	0x3d148b42	0.03626562
23	0xbd1082f2	-0.03528113
24	0x3c860f6a	0.016364772
25	0xbcdfab40	-0.027303338
26	0x3d3593de	0.04433047
27	0x3c92b61d	0.017909104
28	0xbcb17e19	-0.021666573
29	0x3cf1a290	0.029496461
30	0xbcd5b63f	-0.026087878
31	0x3d0c8467	0.034305956
32	0x3d42f4ab	0.047596615
33	0x3c9e737f	0.019342182
34	0xbcb79a07	-0.022412313
35	0x3c3b3a30	0.011427447
36	0x3cbdd07e	0.023170706
37	0xba810fb3	-0.0009846598
38	0x3b577a7f	0.003287941
39	0x3cb62033	0.02223215
40	0x3cbeafe9	0.02327724
41	0xbca29f81	-0.019851448
42	0x3d5fd4c5	0.054646272
43	0x3d461ea2	0.048369057
44	0x3d4bfc02	0.04980088
45	0x3d744561	0.059636477
46	0x3bd02081	0.006351531
47	0x3c8b3263	0.0169918
48	0xbce9e579	-0.028551804
49	0x3b8f3e9d	0.0043714778
50	0x3d3b999e	0.045800798
51	0x3c6a08d3	0.01428433
52	0x3d3513f2	0.044208474
53	0x3d173cfa	0.036923386
54	0x3d0b3a54	0.033991173
55	0x3d68c350	0.05682689
56	0x3d18af82	0.037276752
57	0x3d1ef0b0	0.038803756
58	0x3d5b8b1b	0.05359946
59	0x39a26485	0.0003097394
60	0x3d397e2f	0.045286354
61	0x3d83881d	0.06422446
62	0x3cef24df	0.029192386
63	0x3d415e22	0.047208913
64	0x3cefcdf3	0.029273009
65	0x3a9a0896	0.0011751826
66	0xbb38f82b	-0.0028224092
67	0x3d85fa09	0.06541831
68	0x3c3ac27b	0.011398907
69	0xbc629f4d	-0.013831926
70	0x3c1bb6c9	0.009504029
71	0xbbbdb1cf	-0.0057890187
72	0x3cc13068	0.023582652
73	0xbc782417	-0.015145323
74	0x3d21532c	0.03938596
75	0x3c2ec8f3	0.010668027
76	0xbbc5f213	-0.0060408204
77	0x3d8ea664	0.0696533
78	0x3d7b10cc	0.061295316
79	0xbc9cedeb	-0.019156417
80	0x3d58dbb7	0.05294391
81	0x3c033e65	0.0080104815
82	0x3d28568c	0.041098163
83	0xbce86cd5	-0.028372208
84	0x3bb849e0	0.005624041
85	0xbbd468dc	-0.006482227
86	0x3c4872b0	0.012234375
87	0xbc8c00d0	-0.017090231
88	0x3b18d8e9	0.0023322648
89	0x3c153913	0.009107846
90	0x3d16171f	0.036643144
91	0x3d480951	0.04883701
92	0xbc001542	-0.007817568
93	0xbd1d18dd	-0.03835379
94	0xbcede227	-0.029038502
95	0x3c0d7332	0.008633422
96	0xbd1f0330	-0.0388214
97	0x3d28e039	0.04122946
98	0xbbfc57ed	-0.0077009113
99	0x3ac07012	0.0014681837
100	0x3c7d3b62	0.0154560525
101	0x3d1f85d4	0.038945988
102	0xbd1d80b6	-0.038452826
103	0x3a4c382b	0.0007790352
104	0xbc6e221c	-0.0145344995
105	0x3c616ba5	0.013758575
106	0x3c87f490	0.016596109
107	0xbd20dd9b	-0.03927384
108	0x3d19ca67	0.03754654
109	0x3cf9b5a6	0.030482125
110	0xb9302521	-0.000167985
111	0x3ccfe23b	0.02537643
112	0x3d631ced	0.055447508
113	0x3d3deffa	0.046371438
114	0x3d662ce2	0.056195147
115	0xbcf152ca	-0.029458422
116	0xbae801ed	-0.0017700769
117	0xbc06c21d	-0.008224991
118	0x3ba76351	0.005108275
119	0x3b6d8b6d	0.0036246434
120	0xbcc7fdb9	-0.024412977
121	0xbce1f432	-0.027582262
122	0xba7391b5	-0.00092914264
123	0xbc4cc1c7	-0.012497372
124	0xbc918533	-0.01776371
125	0xbcb5922e	-0.02216443
126	0xbb63bcc4	-0.0034749964
127	0x3d7a8b65	0.061168093
128	0x3c3e1865	0.011602496
129	0xbc11e2d6	-0.00890418
130	0xbc60c780	-0.0137194395
131	0x3cf012c0	0.029305816
132	0x3c932e09	0.017966287
133	0xbbe942a0	-0.007118538
134	0xbb9f2cb8	-0.004857626
135	0x3c0812d7	0.008305273
136	0xbbb02e66	-0.005376625
137	0xbcaec807	-0.021335615
138	0x3b196d36	0.0023411042
139	0xbc07adcc	-0.0082811825
140	0xbc36805d	-0.011139003
141	0x3c835df2	0.016036008
142	0x3d14aef1	0.03629965
143	0x3d74c20b	0.059755366
144	0x3d096f12	0.03355319
145	0x3d1278f9	0.0357599
146	0x3c42f330	0.011898801
147	0x3d2929aa	0.0412995
148	0x3d22297e	0.03959035
149	0x3a2682e4	0.00063519017
150	0xbbe0e73a	-0.006863502
151	0x3cd5ce4c	0.026099347
152	0xbb1d7528	-0.002402613
153	0x3c8ff35e	0.017572101
154	0x3d274425	0.040836472
155	0x3d1f6a02	0.038919456
156	0x3cfbf537	0.030756576
157	0xba287c6b	-0.0006427231
158	0x3d261d67	0.040555384
159	0x3d34d8f5	0.04415222
160	0x3d01e40a	0.031711616
161	0x3cf9049b	0.030397704
162	0x3d09b13b	0.033616286
163	0xbbdee65e	-0.0068023643
164	0xbb161824	-0.0022902573
165	0x3d6dea23	0.05808462
166	0x3c9686c3	0.018374806
167	0x3d38d5d4	0.045125797
168	0x3c9e349f	0.019312201
169	0x3d6747ae	0.056464843
170	0xbab46e98	-0.001376587
171	0x3c4e4d7c	0.012591716
172	0x3d60678c	0.05478625
173	0xbc38adff	-0.011271953
174	0x3cca936b	0.024728497
175	0x3c8a996e	0.016918864
176	0xbd01c876	-0.031685315
177	0x3c8af0ca	0.01696052
178	0x3c5536b3	0.01301353
179	0x3d845cda	0.064630225
180	0x3b61b0ee	0.0034437734
181	0x3d6edd8d	0.058316756
182	0x3d473f92	0.04864461
183	0xbaffa295	-0.0019503409
184	0x3a6e5a6e	0.00090924546
185	0xbc689518	-0.014195703
186	0xbb867bb1	-0.0041041006
187	0x3d570416	0.05249413
188	0x3c589485	0.013219004
189	0xbcda12d8	-0.026620314
190	0xbc49ab54	-0.012308914
191	0x3c6d2e49	0.014476367
192	0xbd54dafb	-0.05196665
193	0xbcac218d	-0.021012092
194	0xbbe83f5b	-0.0070876307
195	0xbc8dbd15	-0.017302075
196	0x3a5a9bfb	0.0008339283
197	0xbd24dde1	-0.040250663
198	0xbd617a89	-0.0550485
199	0xbccdbbf8	-0.025114045
200	0x3ceff3e5	0.029291103
201	0x3ba95849	0.005167995
202	0xbd3db6de	-0.046316974
203	0x3a79b981	0.00095262384
204	0xbd3a4c47	-0.0454829
205	0x3d11cfc1	0.03559852
206	0xbd0a103a	-0.03370688
207	0x3d08993f	0.033349272
208	0xbc96bced	-0.018400634
209	0xbcc05d08	-0.02348186
210	0x3c26b4a1	0.010174901
211	0x3c162076	0.009163013
212	0x3cc2c3ea	0.02377506
213	0x3c4f5c66	0.012656307
214	0xbc3ce6a7	-0.011529601
215	0x3c88eed8	0.016715452
216	0x3bb56d76	0.0055367304
217	0xbd13184f	-0.035911854
218	0xbd1e2746	-0.038611673
219	0x3c047539	0.008084589
220	0xbce8e598	-0.028429791
221	0x3d0a141b	0.03371058
222	0x3c18ce1b	0.009326483
223	0xbc35a0d3	-0.011085707
224	0xbd129565	-0.035787005
225	0x3cf00900	0.029301167
226	0x3c872eda	0.016501833
227	0xbd0cd05e	-0.034378402
228	0xbc13b80f	-0.009016051
229	0x3cd07a78	0.025449023
230	0xbd27d4b7	-0.040974345
231	0xbc8dd46c	-0.017313205
232	0x3d1211bc	0.035661444
233	0xbcc26ae9	-0.02373262
234	0x3ce2c9ee	0.027684178
235	0xbbf72f10	-0.007543452
236	0x3b4ea6f4	0.0031532617
237	0x3cbe8763	0.023257917
238	0xbd186880	-0.037209034
239	0x3bc64dbe	0.006051748
240	0xbd34aaae	-0.044108085
241	0xbd0f38c1	-0.034966234
242	0x3cb45ae8	0.022016004
243	0x3c945437	0.018106563
244	0x3d79bc85	0.0609708
245	0xbc322172	-0.010872232
246	0x3c29a36b	0.010353903
247	0xbca4b328	-0.02010496
248	0x3d4a4d58	0.049390167
249	0x3d01c3cd	0.03168087
250	0x3cf1da3b	0.029523006
251	0x3c8758f1	0.016521903
252	0x3d8cef72	0.06881608
253	0x3d12b891	0.035820547
254	0x3d5a5614	0.053304747
255	0x3d5278b2	0.051384635

res2.conv1.bias f4 [32]
0	0xbcaef3de	-0.02135652
1	0xbc839a81	-0.016064884
2	0x3be6c459	0.0070424494
3	0x3d36abcf	0.044597443
4	0x3c28c9f7	0.010302058
5	0xbcec67f4	-0.028858162
6	0x3c8a632e	0.016892996
7	0xbd39b65a	-0.04533992
8	0xbd345008	-0.044021636
9	0x3cc37181	0.023857834
10	0x3ceb28c3	0.02870596
11	0x3cb0e5f5	0.021594027
12	0xbcdb87e3	-0.026798194
13	0x3ceec077	0.029144509
14	0xba6af192	-0.00089623884
15	0x3d095112	0.03352458
16	0x3b7203f8	0.0036928635
17	0x3be5387e	0.00699526
18	0xbcb6ab39	-0.022298442
19	0xbc3e15b6	-0.011601856
20	0x3d6c4e48	0.057691842
21	0xbcb0ace4	-0.021566816
22	0xbcb8a4d0	-0.022539526
23	0xb938abf9	-0.00017611672
24	0x3d7310ca	0.059342183
25	0xbc5b0bf2	-0.013369547
26	0xbcd4b05a	-0.025962997
27	0x3d1c9828	0.038231045
28	0xbd59bacf	-0.05315667
29	0x3cc2d82b	0.023784718
30	0x3c5fc28f	0.013657226
31	0xbd078da4	-0.033094063

res2.bn1.weight f4 [32]
0	0x3f7ee949	0.99574715
1	0x3f7b546e	0.98175704
2	0x3f79d55e	0.975912
3	0x3f7d1de6	0.98873746
4	0x3f75b59e	0.9598025
5	0x3f7819a4	0.96914124
6	0x3f795156	0.97389734
7	0x3f7e1642	0.9925271
8	0x3f7b7d3c	0.9823797
9	0x3f80d093	1.0063652
10	0x3f77aca1	0.96747786
11	0x3f7cd176	0.9875711
12	0x3f7a84d2	0.9785892
13	0x3f778849	0.9669233
14	0x3f79f608	0.9764104
15	0x3f7a19fe	0.9769591
16	0x3f7866ae	0.97031677
17	0x3f7670d5	0.9626592
18	0x3f7807c8	0.96886873
19	0x3f795db5	0.9740861
20	0x3f75611e	0.95851314
21	0x3f7965d9	0.9742103
22	0x3f793d90	0.9735956
23	0x3f791ab6	0.9730638
24	0x3f78ab48	0.97136354
25	0x3f7e3e0e	0.9931344
26	0x3f7d2b64	0.98894334
27	0x3f7e981f	0.9945087
28	0x3f7e5e56	0.99362695
29	0x3f7e5b05	0.99357635
30	0x3f78be18	0.9716506
31	0x3f80d59d	1.006519

res2.bn1.bias f4 [32]
0	0xb9300d46	-0.00016789613
1	0xbc50b831	-0.012739227
2	0xbc2f0560	-0.010682434
3	0x3be779a0	0.0070640594
4	0xbbf89554	-0.0075861607
5	0xbc602855	-0.013681491
6	0x3a40946c	0.00073463353
7	0xbbdd1b63	-0.0067476495
8	0x3c878381	0.016542198
9	0xbc57d359	-0.013172948
10	0x3b09753c	0.0020974418
11	0x3c523221	0.0128293345
12	0x3949d5e2	0.00019248531
13	0xbc9c24f2	-0.019060586
14	0xbc312662	-0.010812374
15	0xbc97c3a0	-0.018525898
16	0xba0c9364	-0.0005362539
17	0xbc9e78b4	-0.019344665
18	0x389a24a2	7.3501156e-05
19	0xbb2e9a07	-0.00266421
20	0xbcb5c883	-0.022190338
21	0x3b655aa9	0.0034996665
22	0xbc1fc8f4	-0.009752501
23	0xbc6bb5f7	-0.0143866455
24	0xbc12d91f	-0.0089628985
25	0xbb801af9	-0.0039094654
26	0xbc773b9d	-0.0150898965
27	0x3d2b5b65	0.041835207
28	0xba4f9f0d	-0.0007920124
29	0x3cd2d2cd	0.025735283
30	0x3b2667a7	0.0025391371
31	0x3a6d72e0	0.000905795

res2.bn1.running_mean f4 [32]
0	0x3f6faed4	0.9362614
1	0x3f0413dc	0.51592803
2	0x3f1a39d3	0.6024448
3	0xbf8f0b7c	-1.117538
4	0x3eb5d96c	0.35517442
5	0x3ed05276	0.40687913
6	0xbefd8e27	-0.49522516
7	0x3f4cd2a2	0.800089
8	0x3e53c181	0.20679285
9	0x3f6990ab	0.9123637
10	0xbf3ff81a	-0.7498795
11	0xbf2938bf	-0.6610221
12	0x3f502623	0.8130819
13	0x3f732aec	0.9498737
14	0xbcd2eb19	-0.025746869
15	0x3e0ed60d	0.13948841
16	0xbeefac69	-0.46811226
17	0xbf03d415	-0.51495486
18	0xbf81bef7	-1.0136403
19	0x3f6ea28f	0.93216795
20	0xbf5937f4	-0.84851
21	0x3fa7f8e2	1.3122828
22	0xbf4f7d3e	-0.8105048
23	0x3f468b52	0.77556336
24	0x3f689cd8	0.90864325
25	0x3f4f8215	0.81057864
26	0x3f4dba53	0.80362433
27	0xbf9e91e3	-1.2388271
28	0x3f13c8b0	0.577281
29	0x3f44dc3d	0.76898557
30	0xbf1edab5	-0.6205247
31	0x3f71bdee	0.94430435

res2.bn1.running_var f4 [32]
0	0x419c86cb	19.565817
1	0x40be7a46	5.952426
2	0x4130009b	11.000148
3	0x41e63e7b	28.780508
4	0x40b3de38	5.6208763
5	0x40c6aaf9	6.2083707
6	0x40484ed7	3.129812
7	0x41210d07	10.0656805
8	0x40f421e3	7.6291366
9	0x41884d16	17.03764
10	0x413a8c6d	11.659284
11	0x40fb8ee5	7.861193
12	0x4106e6ec	8.431377
13	0x4143df24	12.241978
14	0x3fdc50bf	1.7212142
15	0x3fd22387	1.6417092
16	0x40ec53c6	7.3852262
17	0x40d8a8fc	6.770628
18	0x4162814a	14.156565
19	0x41e357b8	28.417831
20	0x414b2cd5	12.698445
21	0x4195031e	18.626522
22	0x40a2e5d1	5.0905538
23	0x418ac728	17.347244
24	0x413572a7	11.340491
25	0x4160f6e4	14.060276
26	0x418933ee	17.150356
27	0x42006efd	32.108387
28	0x41394ddf	11.5815115
29	0x4177e5a6	15.4935665
30	0x41262f41	10.386537
31	0x41afeb07	21.98976

res2.conv2.weight f4 [32, 32, 3, 3, 3]
0	0x3ccda4f5	0.025103072
1	0xbaecbd43	-0.0018061775
2	0xbc8c290a	-0.017109413
3	0x3cf9f199	0.03051071
4	0xbd0311a5	-0.03199925
5	0x3d0affb9	0.033935282
6	0xbc0203b9	-0.007935458
7	0xbb4d46d3	-0.0031322732
8	0x3bf123ee	0.0073590195
9	0xbc227f09	-0.009917983
10	0xbcad51b4	-0.021157123
11	0x3ce37913	0.027767694
12	0x3cfefe90	0.031127244
13	0xbc13a633	-0.009011793
14	0x3aa2492b	0.0012381425
15	0x3c72332c	0.014782708
16	0xbb00b992	-0.0019641859
17	0xbb9abc59	-0.00472216
18	0x3cb7eded	0.022452319
19	0xbb2ffd5a	-0.002685389
20	0x3c9de841	0.019275786
21	0xbcb092b1	-0.021554323
22	0xbca308ca	-0.019901652
23	0x3c57ac52	0.013163643
24	0x3c562a1c	0.013071563
25	0xbc888cfa	-0.016668785
26	0xbcf383b8	-0.029725894
27	0xbd08790d	-0.033318568
28	0x3c6eff08	0.014587171
29	0xba030290	-0.0004997635
30	0x3c14b2b1	0.0090758065
31	0x3b1d6309	0.0024015328
32	0xbc34309b	-0.010997917
33	0xbc08392d	-0.008314413
34	0xbd09fc28	-0.03368774
35	0x3c6ec66a	0.014573673
36	0xbc2a48b2	-0.0103933085
37	0xbca28c3b	-0.019842258
38	0xbc49fe4d	-0.012328696
39	0xbb7aad70	-0.003825035
40	0xbcfea017	-0.031082196
41	0x3bfd7443	0.0077348067
42	0xbc5f71b7	-0.013637952
43	0xbd2c57b9	-0.042075846
44	0xba7b32e8	-0.0009582476
45	0xbc34ddb4	-0.011039186
46	0xbd075eec	-0.03304951
47	0xba25755c	-0.00063117384
48	0xbcf695eb	-0.030100783
49	0xbc85d0d8	-0.016334936
50	0xbccebe6b	-0.025237283
51	0x3b535b08	0.0032250304
52	0xbae31470	-0.0017324816
53	0xbcd2b1fa	-0.025719631
54	0x3c317a73	0.010832417
55	0xbc131ecb	-0.00897951
56	0x3c02875c	0.0079668425
57	0xbc92a9c6	-0.01790322
58	0x3c61a673	0.013772595
59	0xbcadbb4b	-0.021207472
60	0xbb1ed5b4	-0.0024236264
61	0xbc29b6af	-0.010358497
62	0xbcdc96e4	-0.026927419
63	0xbcd7db3c	-0.026349656
64	0xbd2b4b6d	-0.04181998
65	0xbc1a71b5	-0.009426524
66	0xbbc80b64	-0.0061048735
67	0x3a2f0979	0.0006677132
68	0xbcf409c3	-0.029789811
69	0xbc005723	-0.007833275
70	0x3baf8cdf	0.0053573693
71	0xbd1f13c9	-0.038837228
72	0xbd021209	-0.03175548
73	0xbc560129	-0.0130618
74	0xbd2a91a2	-0.041642793
75	0xbd410fa5	-0.04713406
76	0xbc4bf464	-0.012448404
77	0x3c54fe6c	0.013000112
78	0x3c91ac94	0.017782487
79	0x3c458dc6	0.012057727
80	0xbccf2d1a	-0.02529006
81	0xbbe4ec4f	-0.006986178
82	0xbcecf8fd	-0.02892732
83	0x3c843a2a	0.016141016
84	0x3adccb57	0.0016845268
85	0xbd2bb7b1	-0.04192323
86	0xbbc20dbb	-0.005922047
87	0x3bddca88	0.0067685284
88	0xba8f29ee	-0.001092253
89	0xbd00fd5c	-0.031491622
90	0x3a476d03	0.00076074916
91	0x3cb2e3ae	0.021837082
92	0x3c7b11ab	0.015324037
93	0x3c81eb21	0.015859189
94	0xbd026937	-0.031838622
95	0x3c59e0fc	0.013298269
96	0x3b9450e7	0.004526246
97	0xbd0cb157	-0.034348812
98	0xbd1c6663	-0.03818358
99	0x3c4bad85	0.012431507
100	0xb868fbc3	-5.554758e-05
101	0x3b46c345	0.0030328792
102	0xbd2552ae	-0.040362053
103	0x39c1bb99	0.000369516
104	0xbcd9d5b5	-0.026591161
105	0xbbb5d439	-0.0055489806
106	0xbd20c213	-0.039247584
107	0xbbac0d98	-0.005250644
108	0x3c01e2ec	0.007927638
109	0xbc14363a	-0.009046132
110	0xbd340a26	-0.04395499
111	0xbcfef45a	-0.031122375
112	0xbd2dcff2	-0.04243464
113	0x3c288824	0.010286365
114	0xbc9c2d44	-0.019064553
115	0xbd371023	-0.044693124
116	0xbcd86cb3	-0.02641902
117	0xbb5971fc	-0.0033179512
118	0xbd1b24d5	-0.037876923
119	0x3c8dfde1	0.017332973
120	0xbd1c1918	-0.03810987
121	0x3ac5927d	0.0015073564
122	0x3c95ab66	0.018270206
123	0xb8aaeef6	-8.1507416e-05
124	0xbc944859	-0.018100904
125	0xbc286bc0	-0.010279596
126	0xbcee2b9c	-0.029073529
127	0xbcf2886f	-0.029606072
128	0xbbdb69fe	-0.006695985
129	0xbb979cd1	-0.0046268483
130	0x3c89a0d9	0.016800331
131	0x3a9d4eb4	0.0012001605
132	0x3c89e9c6	0.016835105
133	0xb9d1356d	-0.00039903392
134	0xbd0dea13	-0.03464706
135	0xbcef016a	-0.029175479
136	0xbcf43973	-0.02981255
137	0x3c08757f	0.0083287945
138	0x3c39547c	0.011311647
139	0xbc01e18d	-0.007927311
140	0xbca7be0e	-0.020476367
141	0xbb1790d8	-0.0023127105
142	0xbc4b5fdb	-0.01241299
143	0x3ca32719	0.019916104
144	0x38b30c40	8.537667e-05
145	0xbcf22cd9	-0.0295624
146	0xbd175ec7	-0.03695562
147	0xbce100b8	-0.027466163
148	0xbc527f41	-0.0128477225
149	0x3cb31ca6	0.021864247
150	0xbce66693	-0.028125083
151	0x3c09db62	0.008414121
152	0xbd1d289e	-0.038368814
153	0x3c8d0511	0.01721433
154	0xbd0c9f21	-0.034331445
155	0xbbe29cef	-0.0069156806
156	0x3bdf189b	0.006808353
157	0xbcb4f708	-0.02209045
158	0xba0c76cf	-0.000535828
159	0xbcf296cc	-0.029612921
160	0xbd03ef16	-0.032210432
161	0xbc61bcfc	-0.013777968
162	0x3aa6701c	0.0012698206
163	0x3bd1a59e	0.006397917
164	0xba80ba87	-0.0009821214
165	0xbbbccb2b	-0.005761524
166	0xbcd182db	-0.025575092
167	0x3cb176fd	0.021663183
168	0xbd099069	-0.033584986
169	0xbc35968a	-0.011083255
170	0x3c69debe	0.014274297
171	0x3c8afb5e	0.016965564
172	0x3caf62a4	0.02140934
173	0x3c45b21f	0.012066393
174	0xbcbd8641	-0.023135306
175	0xbcff3a5b	-0.031155756
176	0xbc4e50d6	-0.012592515
177	0xbcf74218	-0.030182883
178	0xbbe6609f	-0.007030561
179	0x3b159222	0.0022822698
180	0x3cafda54	0.021466412
181	0x3c3de933	0.011591244
182	0x3bda442a	0.006660958
183	0x3c7a4594	0.015275378
184	0x3c524d4b	0.012835811
185	0xbc35e567	-0.011102057
186	0xbd051e9d	-0.0324999
187	0x3ca0b668	0.019618228
188	0xbc27d05a	-0.010242546
189	0xbb0933c9	-0.0020935407
190	0xbd0661c5	-0.032808084
191	0x3c3656de	0.011129109
192	0xbd023ed7	-0.03179821
193	0xbc5ed0d7	-0.013599596
194	0xbce77c79	-0.028257595
195	0xbd06e4d1	-0.03293306
196	0x3b961469	0.00458007
197	0x3c3a36c2	0.011365594
198	0xbc3b356e	-0.011426313
199	0xbc2d5e32	-0.01058154
200	0xbd0d2e3d	-0.034467924
201	0xbb3b6a91	-0.0028597454
202	0x3c88f823	0.016719883
203	0x3c08ee42	0.008357586
204	0x3c5f5cf4	0.013633002
205	0xbceb56d9	-0.028727936
206	0xbd0a66e6	-0.033789538
207	0x3b9c6d83	0.004773797
208	0xbcf9bfe5	-0.03048701
209	0x3ca5d33a	0.020242322
210	0xbc9a2542	-0.018816594
211	0x3b251dca	0.0025194758
212	0xbcc9bac0	-0.024625182
213	0xbbfb95d3	-0.0076777725
214	0x3bede4d0	0.0072599426
215	0x3bec9739	0.0072201756
216	0x3c012d92	0.0078844
217	0x3c4b1404	0.012394909
218	0xbd1d017f	-0.038331505
219	0x3c42973b	0.0118768765
220	0xb95984f3	-0.0002074426
221	0xbd1da688	-0.038488895
222	0xbcd01648	-0.02540125
223	0x3bdb06f0	0.0066841766
224	0xbb97e6f9	-0.0046356884
225	0x3bfef10e	0.007780201
226	0xbd2ac8b6	-0.04169532
227	0xbc924f78	-0.01786016
228	0xbcebe68e	-0.02879646
229	0x3c148760	0.009065479
230	0xbcdffae3	-0.027341312
231	0xbc83fbc8	-0.01611127
232	0xbd31bc7b	-0.04339264
233	0x3caba407	0.020952238
234	0xbbf82d1b	-0.0075737364
235	0x3c39ea22	0.0113473255
236	0xbd1cf207	-0.038316753
237	0xbd30bc87	-0.043148544
238	0xbc67a2f6	-0.014137974
239	0x3ca2d074	0.019874789
240	0x3c0c2e29	0.008555927
241	0xbceaafd0	-0.028648287
242	0x3c3c2374	0.011483062
243	0x3ca9146e	0.020639624
244	0x3c98105d	0.01856249
245	0x3c370b6a	0.011172155
246	0xbc2dd652	-0.01061018
247	0x3ba93f5a	0.005165023
248	0xbd0c38fc	-0.034234032
249	0x3c98a72c	0.018634401
250	0x3ca9faf4	0.020749547
251	0x3c6b0399	0.0143441195
252	0x3cd2c7a2	0.025729958
253	0x3cbd5edc	0.023116522
254	0x3c414405	0.011796002
255	0x3bf3fed2	0.0074461484

res2.conv2.bias f4 [32]
0	0x3c836bae	0.016042557
1	0xbcb2e541	-0.021837832
2	0x3ce6745d	0.028131658
3	0x3ccfbb38	0.025357828
4	0x3cf88a66	0.030339431
5	0x3c5f12d8	0.013615333
6	0x3c6dffb0	0.014526293
7	0x3bc62e7d	0.0060480223
8	0xbc6cf69d	-0.014463094
9	0x3d14eeea	0.03636066
10	0xbc9f4105	-0.019440183
11	0x399cc9dd	0.00029905039
12	0x3c04fcfd	0.008116958
13	0x3d21af44	0.039473787
14	0xbd07a8d7	-0.033120003
15	0x3d253ede	0.040343158
16	0x3d3f2b6a	0.046672262
17	0x3bc111bf	0.005892008
18	0xbc03df5a	-0.008048857
19	0x3b9745a8	0.004616458
20	0x3ca95a8c	0.020673059
21	0xbc31298d	-0.010813129
22	0x3d2937a3	0.041312825
23	0x39fe853b	0.0004854592
24	0xbc576380	-0.013146281
25	0xbccf9d60	-0.025343597
26	0xbba07131	-0.004896306
27	0x3c77b0b2	0.015117811
28	0xbcc54c55	-0.02408425
29	0x3bb94a04	0.0056545753
30	0x3be5ea87	0.007016483
31	0xbbdfee1f	-0.006833806

res2.bn2.weight f4 [32]
0	0x3f735c3d	0.9506262
1	0x3f782113	0.9692547
2	0x3f785747	0.97008175
3	0x3f763207	0.96170086
4	0x3f74debd	0.9565237
5	0x3f7812fa	0.96903956
6	0x3f72dc51	0.94867426
7	0x3f731297	0.9495024
8	0x3f7993b2	0.9749099
9	0x3f7616c3	0.9612848
10	0x3f785e40	0.97018814
11	0x3f791c11	0.9730845
12	0x3f79d675	0.9759286
13	0x3f79653d	0.974201
14	0x3f71224d	0.94192964
15	0x3f772e0a	0.96554625
16	0x3f7ddf35	0.9916871
17	0x3f6efda9	0.93355805
18	0x3f76004f	0.9609422
19	0x3f73e96d	0.95278054
20	0x3f746c9c	0.95478225
21	0x3f7785b0	0.96688366
22	0x3f728cb1	0.9474593
23	0x3f776803	0.96643084
24	0x3f7c68e7	0.9859757
25	0x3f78f92a	0.97255194
26	0x3f7432fc	0.95390296
27	0x3f728aa5	0.94742805
28	0x3f7509b6	0.9571794
29	0x3f76f01a	0.96460116
30	0x3f75ea26	0.9606041
31	0x3f749015	0.9553235

res2.bn2.bias f4 [32]
0	0xbca12dc5	-0.019675145
1	0xbc00d9b5	-0.007864405
2	0x3a4808b0	0.0007630689
3	0xbc538d19	-0.012912058
4	0xbc2a8447	-0.010407514
5	0xbd0a5f83	-0.033782493
6	0xbca1b8dd	-0.01974147
7	0xbcaa3b28	-0.020780161
8	0xbcb7f40d	-0.02245524
9	0xbc73535f	-0.01485142
10	0xbc42acef	-0.011882051
11	0xbb8f0854	-0.0043650065
12	0xbb88ecc7	-0.0041786167
13	0xbc14c15c	-0.009079304
14	0xbd37574e	-0.044760995
15	0xbbc25542	-0.0059305737
16	0x3c67ffe4	0.01416013
17	0x3cb3fce4	0.021971174
18	0xbc88100e	-0.016609218
19	0xbcb9bea8	-0.02267392
20	0xbd16e8f3	-0.03684325
21	0xbcfcd833	-0.03086481
22	0xbc2c59a0	-0.010519415
23	0xbca0d835	-0.019634346
24	0x3b24cdc5	0.0025147062
25	0xbc0f37c5	-0.008741324
26	0xbcad0e6c	-0.021125041
27	0xbca0b66f	-0.019618241
28	0xbcc6dfd7	-0.024276657
29	0xba7fe42a	-0.0009761477
30	0xbcab9184	-0.02094341
31	0xbc9d02c6	-0.019166362
